results/Ball/Ball/Ball-162764.onnx (onnx, 78682 bytes, 7 tensors)

network_body._body_endoder.seq_layers.0.weight f4 [128, 13]
000000 96 de 04 3f f1 0f 0e 3f 59 e0 94 be a1 38 6a be
       0.5190214 0.55493075 -0.29077414 -0.22873165
000010 5c 52 30 be e0 ad b8 3e 19 92 48 be 8a 96 1b 3e
       -0.17218918 0.36070156 -0.19586982 0.15194145
000020 ba 61 84 3e e8 56 4b 3e 2a 29 38 3e 2d d3 9d be
       0.2585581 0.19857371 0.17984453 -0.30825177
000030 00 d2 9b be 63 26 3e bd e5 50 f3 be 94 06 d0 be
       -0.30433655 -0.046423327 -0.47522655 -0.4063002
000040 d6 0f 2b bd 05 66 24 3f 25 73 94 3d fd 23 3c bc
       -0.04176315 0.6421817 0.072485246 -0.01148319
000050 23 3e 4f be d0 d2 29 be a3 11 e7 bd 0a 4a cd be
       -0.20238547 -0.16584325 -0.11282661 -0.4009555
000060 da e6 b0 be c4 1f e4 be 88 74 0d bf a5 00 9d be
       -0.34551126 -0.44555485 -0.5525594 -0.30664554
000070 8b 53 33 3d 64 56 94 be c7 74 1d be 31 b7 e1 bc
       0.043780845 -0.2897216 -0.15376578 -0.027553173
000080 a7 53 56 be 36 ad b5 be b8 61 12 3e f1 7d db 3d
       -0.20930348 -0.35483712 0.14295089 0.10717381
000090 06 ee 2e be 34 bd 56 be 02 d1 43 be 9a 4a 27 bf
       -0.17082986 -0.20970613 -0.19122699 -0.6534821
0000a0 48 57 45 3e 6d 97 a5 bd dd 50 93 3e 07 99 0e 3f
       0.19271576 -0.08085523 0.2877263 0.5570225
0000b0 5e 46 1c 3f 51 9a 0d 3e 3b d5 87 3e a8 0d 05 3e
       0.6104487 0.13828398 0.2652987 0.1299349
0000c0 a8 7c 8a bc 93 f5 c3 3e b9 33 3c 3e cc b2 e1 3e
       -0.016905144 0.38273296 0.18379106 0.44081724
0000d0 2a 60 4d be b6 c6 7b be 61 35 87 be b9 c5 14 be
       -0.20056215 -0.24587521 -0.26407912 -0.1452855
0000e0 b3 24 6a 3e 9d 9f 7c 3e 0b 95 55 3c ed 40 ac 3d
       0.22865562 0.24670263 0.013036023 0.08410821
0000f0 d1 fb 1d bf 04 7a 28 3c 4a 22 ff 3c 5f 51 b8 3e
       -0.61712366 0.010282997 0.03114428 0.3599958
000100 15 75 96 bd b3 b0 17 3e e0 e7 9b be 88 13 a8 bd
       -0.073465504 0.14813499 -0.30450344 -0.0820685
000110 0a 21 f9 3e 56 b9 51 be bd c0 81 be 95 26 25 bf
       0.4865802 -0.20480856 -0.2534236 -0.64511997
000120 30 0a a9 3d ec 59 9c 3d b8 04 7e 3e 32 49 96 3e
       0.08253896 0.07634339 0.24806488 0.2935272
000130 af 76 1c bd 17 54 a1 be 7e 59 d0 be f5 35 52 be
       -0.038199123 -0.31509468 -0.40693277 -0.20528395
000140 8e 05 ff be 26 0e b6 bd d2 93 0e 3e 3f 61 29 3e
       -0.49808925 -0.08889417 0.13923576 0.16541003
000150 a5 eb 81 be e0 18 3b 3d bf 0e 3f 3f 8c ef c9 bd
       -0.25375095 0.04567802 0.74631876 -0.09860143
000160 4e 36 11 be 8c c0 97 3e 3a 26 3c 3e 4a 8c 2e 3e
       -0.14180872 0.2963909 0.18373957 0.17045704
000170 be 64 f4 3d 3a 4f a3 3e 7c d1 8b be 64 bd 07 3d
       0.119332775 0.31896383 -0.2730826 0.0331396
000180 f2 ae 9f 3e 8a da da 3e e2 2d 24 bd 17 13 bb bd
       0.3118816 0.42744857 -0.04008282 -0.091345005
000190 7b bb ae be 73 86 94 3d 44 ab 05 bf c5 a9 37 3c
       -0.3412741 0.07252207 -0.52214456 0.01120991
0001a0 85 86 c0 3c 06 63 b0 3d 91 99 bf 3d 68 8b 47 3e
       0.023501644 0.08612637 0.09355462 0.19486773
0001b0 22 e1 09 bd 16 4d 0c 3e 99 bc b3 3e a9 58 99 bd
       -0.03366197 0.13701281 0.35104826 -0.07487614
0001c0 31 6c 39 3e 83 88 05 3e 05 2e 88 be 12 68 5a 3e
       0.18107678 0.13040356 -0.2659761 0.21328762
0001d0 66 3a d1 bc 25 f3 a1 3d 75 96 f8 bd 36 03 a7 bd
       -0.025540542 0.07907704 -0.121380724 -0.08154909
0001e0 57 74 67 b8 b3 a2 8d 3e 10 cc 5c 3e 8a aa de 3c
       -5.518304e-05 0.27663192 0.21562219 0.027180929
0001f0 f8 49 d8 bd 62 f4 06 bf b2 ca a0 3e 91 c4 dd 3d
       -0.105609834 -0.5271665 0.31404644 0.10828508
000200 f8 c2 2f be 1c 14 75 3d ed de a9 be 7c 51 c6 bd
       -0.17164218 0.05983363 -0.3317789 -0.09683511
000210 32 dc 4c be 89 6e 8a be a4 63 82 3e 09 bc 85 3e
       -0.20005873 -0.27037457 0.25466645 0.26120022
000220 ac 78 2f 3e d7 d9 ab 3d cb 5e fe bd a7 fc 47 3e
       0.17135876 0.08391159 -0.12420424 0.19529973
000230 14 e6 fc bd cb 51 55 be c5 5f 9f be 3e 47 93 be
       -0.123485714 -0.20831983 -0.31127754 -0.2876529
000240 31 ac e3 bd 61 7c da be 14 8f 0e bc 95 94 15 3e
       -0.11116827 -0.4267302 -0.008701105 0.14607461
000250 8b d4 bd 3d 49 63 8c bd cd bb b8 bb 3b 1b 40 be
       0.09269055 -0.06854875 -0.005637622 -0.18760388
000260 48 89 84 3e d7 9e 63 3d 45 41 96 3e 0f 45 49 3e
       0.25885987 0.055571403 0.29346672 0.1965525
000270 27 be 6c bd 6d 15 e7 3c 61 02 b3 be bf 94 50 3d
       -0.05779853 0.028208459 -0.34962752 0.050923105
000280 90 64 d8 3e c4 f1 90 be af cb e3 3d 50 2d c7 be
       0.42264223 -0.28309453 0.11122834 -0.38901758
000290 c2 a8 ac bc 50 23 90 3c 2e 2c 6a be bb 39 24 bf
       -0.021076564 0.017594963 -0.22868416 -0.6415059
0002a0 5e bd 89 bd ba 3d a9 3e 09 d0 d7 be 8d 20 f2 be
       -0.06725572 0.33054906 -0.42150906 -0.4729046
0002b0 59 5e c7 3e 0a b4 3b 3e 4c bf b3 3d 5a 48 22 3e
       0.3893917 0.18330398 0.08776721 0.15847912
0002c0 21 c8 c2 bd d9 8d 50 bd 59 06 3c be 2b ad 6e 3e
       -0.09510828 -0.050916526 -0.18361796 0.23308246
0002d0 ec 30 12 bf 15 da cb be bb 54 e4 3d 06 2a af bd
       -0.571059 -0.3981482 0.111489736 -0.08552937
0002e0 b3 d5 88 bd d9 7c a6 bd 5d 4c 06 3d 84 ad a8 3e
       -0.06681385 -0.081292816 0.03278767 0.32944882
0002f0 8e a1 24 be a6 9e 89 3e a4 6b f2 3a 45 0f 50 be
       -0.16077253 0.26878852 0.0018495214 -0.20318325
000300 0d 46 bf 3d 4e 05 76 3d bf 0e 0f be a9 36 37 3d
       0.09339533 0.060063653 -0.13970469 0.044729862
000310 4f 66 e6 3e 6c 1c 53 bc f8 75 cf 3e a2 ae 8d bd
       0.4499993 -0.012885194 0.4051969 -0.06918074
000320 90 15 ad be 8a f9 bc be 2b ae b7 3d 43 2e 0e bd
       -0.33805513 -0.36909133 0.08968767 -0.034712087
000330 71 2e f6 bd 43 44 99 be 37 16 12 3e cd dd 7c 3d
       -0.12020577 -0.29934892 0.14266287 0.061734963
000340 0e e2 7b be 78 82 ba be 71 65 a3 bd 0a 8b c1 3e
       -0.24597952 -0.36427665 -0.07978333 0.3780139
000350 e7 39 b7 be d0 d8 c8 ba 78 1f 31 3f fd 49 b9 3e
       -0.35786363 -0.0015323404 0.6918864 0.3618926
000360 7a 21 aa be d8 e8 95 be e2 62 1c 3f 13 db 11 3f
       -0.33228666 -0.29279208 0.61088383 0.56974906
000370 07 45 18 bf b1 84 54 3e 5f b0 9d be eb 19 9f 3e
       -0.5948033 0.20753743 -0.30798623 0.3107446
000380 85 20 61 3e e5 5d 16 3e ff 16 f6 3c d5 05 54 be
       0.21985061 0.14684255 0.030040262 -0.2070535
000390 11 29 3f be 78 79 1c 3d 59 f4 bc 3d 89 a5 8e be
       -0.1866801 0.03820178 0.09226293 -0.27860668
0003a0 57 8d 9f be 21 6b ac 3e c4 dc 8c 3d aa 42 12 3d
       -0.3116252 0.33675483 0.06878045 0.035708107
0003b0 db cb 6a 3d 09 56 68 bc dc b9 d3 3e 5e 41 74 3d
       0.057323318 -0.014180669 0.41352737 0.05963265
0003c0 f8 08 a9 be 7e 8c 32 be 12 e2 0b be 87 a1 fe 3e
       -0.33014655 -0.17436406 -0.13660458 0.4973261
0003d0 79 ef 88 3d 03 ea 00 3f 24 4f 1c 3e 36 e5 a7 3e
       0.06686301 0.50357074 0.15264565 0.32792062
0003e0 98 d3 72 be 0e 9e b0 3d 12 58 8b be 4b 03 f5 be
       -0.23713529 0.086238965 -0.2721563 -0.47854075
0003f0 46 39 2c bd e5 56 8e 3e f3 43 85 be 82 35 c6 bd
       -0.042046808 0.2780067 -0.26028404 -0.096781746

network_body._body_endoder.seq_layers.0.bias f4 [128]
000000 92 f1 af bb b3 9c 79 3c 19 a7 cf 39 7c 12 95 3c
       -0.0053693736 0.015235114 0.00039606614 0.01819729
000010 9d 7d 5a bc 0d 09 11 bb a0 41 ac 3b f3 c2 04 3c
       -0.013335613 -0.0022130639 0.0052568465 0.00810312
000020 1e a8 04 bb d0 3c 09 bc 3d 08 5f 3c af 48 88 3a
       -0.0020241807 -0.008376315 0.013612804 0.0010397638
000030 34 7f a3 bc 92 8d dd 3b 65 92 b3 3b 28 c2 67 3b
       -0.019958116 0.0067612613 0.005480098 0.003536353
000040 74 85 c7 bb 0c 24 ec 3a 93 52 3d 3c 6f 20 9e 3c
       -0.006088907 0.0018016114 0.011555332 0.019302575
000050 c6 b8 6c ba 18 f5 19 bc 58 97 b8 3b a7 43 9a ba
       -0.0009030219 -0.009396814 0.005633276 -0.001176943
000060 f1 cc f9 3a f6 a3 ef bb 7b c3 04 3c 56 f0 ca 3b
       0.001905827 -0.007313247 0.008103247 0.006193201
000070 89 c5 7f b9 a7 b6 9a 3b 6f 3a dc 3a 37 4b 93 3d
       -0.00024392283 0.004721481 0.0016802083 0.071920805
000080 05 0b cf 3c 7e ac 95 bb d3 9e 18 3d c3 06 92 3a
       0.02527381 -0.004567682 0.03726084 0.0011140931
000090 4c 10 59 bb 72 22 d3 3c 50 77 25 bb b8 a6 34 3c
       -0.0033121286 0.02577326 -0.0025248118 0.011026077
0000a0 1e 46 74 bc 26 35 a8 bb a3 e7 8e 3b 81 c0 47 3d
       -0.014909295 -0.005133289 0.0043611093 0.04876757
0000b0 cf 77 26 3d 94 0f f1 3b 00 30 cb 3a f2 0e 8a 3b
       0.040641602 0.0073565934 0.0015501976 0.0042132074
0000c0 1e 8f 2d 3a 08 a9 22 3c 1f cb 17 3c 21 9f bf 3b
       0.00066207524 0.0099279955 0.009264736 0.005847827
0000d0 b8 1c 17 bc 61 00 6b bc a2 ba e9 39 8f e5 d7 bb
       -0.009223156 -0.014343352 0.00044580275 -0.006588645
0000e0 10 2d 83 39 56 e7 b2 3b 25 4f e4 3c ac 44 ae 39
       0.0002501984 0.0054597063 0.02786977 0.0003323903
0000f0 9c e1 04 3d d1 d8 e1 3a c3 2e c8 bb c1 ff 06 3d
       0.03244172 0.0017230754 -0.00610909 0.03295875
000100 80 f3 4c 3c 99 3b 35 bc ad c3 b6 3b ca 31 46 3c
       0.012509227 -0.0110615725 0.0055775256 0.012096832
000110 ac 77 ad 3b be a9 dc bb 4b 13 13 bb 3b 3a 72 3b
       0.005293807 -0.006734102 -0.002244192 0.0036960978
000120 23 14 2c b8 d6 db e7 3a 92 9e 37 b9 60 f6 42 3c
       -4.102675e-05 0.0017689418 -0.00017511312 0.011899561
000130 c9 22 1c 3b 76 56 a2 3c 96 2c 92 bc 9e 9a ec bb
       0.0023824445 0.019816618 -0.017843526 -0.0072205802
000140 0d e1 49 3b 35 95 80 3c 19 7d 94 3c b8 bb 05 3c
       0.0030804307 0.015696147 0.018126057 0.008162431
000150 ab be 20 ba 0f 1e b8 bb b8 40 3d ba be 7e f1 bb
       -0.00061319274 -0.0056188176 -0.00072194217 -0.007369845
000160 0b bb d9 3b e5 2b 06 3b 4c 25 81 3c 78 6e cf 3b
       0.0066446117 0.002047294 0.015764855 0.0063303076
000170 47 d1 ac 38 18 b2 20 bc 3c b4 77 bc c1 81 b3 3c
       8.24058e-05 -0.009808086 -0.015118655 0.021912457
000180 a0 b0 37 b9 7b c3 0a bb 9e 46 74 3b fb d4 6c bb
       -0.00017518038 -0.0021173644 0.0037273536 -0.0036137688
000190 84 b8 1d 3c f1 5a d2 bb 20 f2 39 bc dd e4 54 3c
       0.0096265115 -0.0064195325 -0.011349231 0.012994018
0001a0 c5 7b 27 bb 23 87 d9 3b 1a 67 0f 3b 46 2d 81 3c
       -0.002555595 0.006638424 0.0021881522 0.015768658
0001b0 a4 fd a6 3a 99 50 5b bb 57 ed f0 bb 0e cb 9e bc
       0.0012740386 -0.0033464788 -0.007352512 -0.019383933
0001c0 7f c8 86 bb 4c 17 0b 3b 9a c8 41 3d a9 7f 16 3c
       -0.0041132565 0.0021223603 0.04731045 0.00918571
0001d0 da 35 0c bc ce 14 f1 3c 2b 8f bc b9 c1 b1 0d 3c
       -0.008557761 0.029428866 -0.00035964823 0.008648337
0001e0 33 62 e0 ba bf c4 b7 3a 97 8a 22 bc 27 19 ca bb
       -0.0017119109 0.0014020427 -0.009920738 -0.006167549
0001f0 73 1d 82 3b b7 4e fd bb f5 13 c1 bc b2 a0 04 bb
       0.003970796 -0.007730331 -0.023569087 -0.0020237383

network_body._body_endoder.seq_layers.2.weight f4 [128, 128]
000000 3a 47 6b 3d 39 00 37 bd 22 bb 2d 3d b8 9d 79 bd
       0.057440974 -0.044677947 0.042414792 -0.060941428
000010 85 4b 4a 3c 05 06 f2 3d 1d 73 10 3d fd 66 77 bc
       0.012347107 0.118175544 0.03526603 -0.015100238
000020 9f 96 86 bc 78 2e 25 3d 0e 60 f3 3d a2 6e 17 be
       -0.016429244 0.04032752 0.11883555 -0.14788297
000030 39 05 0c 3b e5 26 64 be d3 4b 0f 3d ee 83 39 3d
       0.0021365418 -0.22280462 0.03498442 0.045291834
000040 f0 72 db bd 4b bf 0c 3e 8f 0d 2f 3e 25 1d ba 3d
       -0.10715282 0.13744847 0.17095016 0.0908759
000050 43 e5 8f 3d 8f 28 94 bd ce a8 83 bd f7 fa a0 3c
       0.0702615 -0.072342984 -0.06428681 0.01965092
000060 f3 93 a8 3d d6 94 0e be 95 46 a0 3d 91 78 04 3d
       0.08231344 -0.13923964 0.078259625 0.032341544
000070 6d 4e 7a 3d 7b 6b 1c be 9c 05 2e 3e 33 61 43 3d
       0.06110995 -0.15275376 0.16994327 0.04770012
000080 43 e3 07 be 3a 8e 28 bd 2c d1 27 3e c3 c4 5e bd
       -0.13270287 -0.041151263 0.16388386 -0.054386865
000090 09 4c 79 bd cb 1a 63 bb f8 af 62 bd 1c e8 56 3e
       -0.06086353 -0.003465342 -0.055343598 0.2098698
0000a0 a4 3e d7 3c 17 6d a6 3d ec 19 58 bd de 25 d0 ba
       0.026274987 0.08126276 -0.052759096 -0.0015880426
0000b0 ff 85 14 be 64 88 dc bc f8 ae 48 3e 9d 10 d9 bb
       -0.1450424 -0.026920505 0.19597995 -0.006624295
0000c0 43 0a af bd 6c 8a b7 3d e6 b8 fe bd e9 b6 34 bd
       -0.08546879 0.08961949 -0.1243761 -0.04411975
0000d0 39 c4 8f 3c 6b 90 0f 3d 05 b0 a6 bd ee 1b ca 3d
       0.017549621 0.035049837 -0.08139042 0.098686084
0000e0 de 3a 90 3d bc b6 1c bd 09 74 f0 bd 81 74 57 3e
       0.07042478 -0.038260207 -0.11740882 0.21040536
0000f0 46 f2 e7 3b 51 b3 d9 3d 8d 3a 1b bd 5c 0b 7d 3d
       0.007078442 0.10629905 -0.037897635 0.06177841
000100 84 c6 c2 bd 11 82 a3 bc 0d 86 ba bd f5 f4 3a 3d
       -0.0951052 -0.019959481 -0.091075994 0.045643765
000110 ef 80 1e 3e 56 83 24 bc a3 0c 6f 3c 64 60 8c 3e
       0.15478872 -0.010041079 0.014590415 0.2741729
000120 1c 90 a0 3d 14 ae f2 3d 76 21 89 3e 82 96 39 be
       0.07839987 0.11849609 0.2678334 -0.1812382
000130 c3 d5 81 bd 26 cd 1e be 9c f7 12 be 01 86 33 3d
       -0.063396 -0.15507945 -0.14352268 0.043828968
000140 03 74 5f bc 39 63 b4 bd 76 76 9f 3d f8 32 71 3d
       -0.013638499 -0.08807988 0.077862665 0.0588865
000150 2d 65 66 bc 7f 2c 26 bd 09 8f ef bc 98 d3 02 3e
       -0.014062208 -0.04056978 -0.02924301 0.12776029
000160 ac 51 6a 3d 4e 87 da bd 49 79 82 3d cd 9d a5 3a
       0.057206795 -0.106703386 0.063707896 0.0012635529
000170 3e 31 20 3e a8 73 f1 3d 82 80 64 3d c2 3a 22 be
       0.15643784 0.11789638 0.055786617 -0.15842727
000180 24 6f 57 bd 11 9f 9a 3d a6 c5 3f bd fd 3f 0a 3e
       -0.052596226 0.07549871 -0.04681935 0.13500972
000190 ef e9 48 be e5 e1 e8 3c ca 2d ab 3d b3 11 97 bd
       -0.19620489 0.028428027 0.08358343 -0.07376423
0001a0 1d f4 09 be 66 b2 42 3d c1 cf 66 ba c8 2a bd bd
       -0.13472028 0.047533415 -0.00088047615 -0.092366755
0001b0 a5 ae e0 bd a5 5f e3 3d 96 b0 ce 3d c2 3e 27 bd
       -0.10970811 0.11102227 0.10092275 -0.040831335
0001c0 cd 17 81 bc 2a fa 32 be 33 96 0e be 2d 93 cd 3d
       -0.01575842 -0.17478243 -0.13924484 0.10037837
0001d0 cf 94 cd 3d ec 33 f5 bc d9 cb 95 3d f4 96 85 3d
       0.100381486 -0.029931985 0.073142715 0.06522933
0001e0 97 d7 98 bc d3 bc f0 bc 86 ac 27 be e3 f8 fe 3c
       -0.018657489 -0.029386913 -0.16374406 0.031124538
0001f0 60 6e 46 bc e3 87 be bc fa e3 1b be af ee 82 bd
       -0.012111276 -0.023258155 -0.15223685 -0.063931815
000200 1b 0e 35 bc b1 46 9c 3d 54 9f c7 bd a4 16 b9 3d
       -0.011050726 0.07630671 -0.09747186 0.090375215
000210 39 32 29 3d 80 2d 1b bd b2 d0 ad 3d 71 a3 6d bd
       0.04130766 -0.03788519 0.08487071 -0.058017198
000220 7a 2a 6e bd 88 e4 1e be e2 0c a3 3d 06 6a 5b 3d
       -0.058145978 -0.15516865 0.079614416 0.05356791
000230 cd 00 e8 bd d0 7e 15 be a2 d9 86 bd 8e ce ee 3d
       -0.11328278 -0.14599156 -0.06584479 0.11660491
000240 4f b0 bf bd 72 71 05 3d 6e 1e 87 3b cc a6 e1 bd
       -0.093598 0.032578893 0.0041235005 -0.11018142
000250 18 e4 f1 bc 02 f3 5d bc b5 e2 35 3e a4 5d 08 be
       -0.029527709 -0.013546707 0.17762263 -0.13316971
000260 6b eb 89 bd 51 37 1a 3e 7b 2e 52 bd 92 d1 e1 3d
       -0.067343555 0.15060164 -0.05131386 0.110263005
000270 29 85 c5 bc 1a bf 18 3c 39 f8 0d be 65 a4 dd bd
       -0.024111347 0.009322906 -0.1386422 -0.108223714
000280 1a 2e 2d bd 7a d9 af 3b 9f e8 7c bc 92 22 ed 3d
       -0.042280294 0.0053665014 -0.015436321 0.115788594
000290 99 bf 04 3e ef 47 b2 bc 46 93 b4 bd 32 80 1f be
       0.12963714 -0.021762816 -0.08817153 -0.15576246
0002a0 86 c0 d2 3d 8e d4 1b bd 63 a5 e2 bd 14 1e 06 3d
       0.10290627 -0.038044505 -0.11066701 0.03274353
0002b0 29 9e 15 3c fb 13 ee bc 12 9e dc b9 c5 dd a0 bc
       0.009131947 -0.029062262 -0.00042079441 -0.019636998
0002c0 f7 97 bd 3c 4a e6 48 bc 98 b5 7f 3d b7 bd ac 3d
       0.023143752 -0.012261936 0.06242904 0.08434623
0002d0 34 d9 f6 3d ba 03 0c be 2a 5b 45 bb b6 8d bc bc
       0.12053147 -0.13673297 -0.0030114152 -0.023016792
0002e0 56 ca 2d bd 2c 5d 87 bd 47 3b d9 3d 50 96 88 3d
       -0.04242929 -0.06609568 0.106070094 0.06669295
0002f0 ad d4 87 bc 0f 97 a5 3c 47 ae d7 ba 2e 38 ed 3b
       -0.016580904 0.020213632 -0.0016455137 0.007239363
000300 e9 12 15 3b df 48 e6 3d 9b 21 b7 bc c0 82 f1 3d
       0.0022746867 0.11244368 -0.022354892 0.11792517
000310 30 e0 48 bc 7c 0a e9 bd 9c 4c 21 be 23 2d 2b bd
       -0.012260482 -0.11378953 -0.1575188 -0.041791093
000320 ed 0d c7 3d 2f 6f 8d 3d 4a a0 9c bd 2d d1 b9 bd
       0.09719453 0.06905972 -0.0764776 -0.090731
000330 d6 c4 43 3e c0 42 f6 3c 02 48 85 bd 53 9c cd 3c
       0.19118056 0.030061126 -0.06507875 0.025098955
000340 d8 14 81 3a ba f2 c2 bd ff 44 12 3d fa 17 93 bd
       0.0009848131 -0.09518953 0.03571033 -0.071823075
000350 9d 30 9f 3d 32 b4 42 bc a0 6e 2b 3e 3f 99 0b 3e
       0.07772944 -0.011883782 0.16741419 0.13632677
000360 ac ed 85 bd 5a b3 ba bc 5a e8 71 bc 39 cb f6 bb
       -0.06539473 -0.0227906 -0.01476487 -0.0075315502
000370 b9 78 94 3d 65 28 48 3d e8 5d 1f be b2 97 bb 3d
       0.072495885 0.04886665 -0.15563166 0.09159793
000380 7b 9b a6 3d fb 87 5a bd ff da 0b 3e db 8a 9b 3d
       0.08135124 -0.053352337 0.13657759 0.07594844
000390 72 bb bf bc 06 1d 28 be f5 7a 95 3d 91 b9 db 3d
       -0.02340481 -0.16417322 0.07298843 0.10728753
0003a0 06 6d 17 bc 9d 7d 43 3b dd 03 0e 3e dc bb b8 bc
       -0.009242302 0.002982951 0.13868661 -0.022550516
0003b0 f2 6f 12 3e d0 79 f0 bd 08 44 5b 3e e0 86 f2 bd
       0.14300516 -0.11741984 0.2141267 -0.118421316
0003c0 a0 7f bb 3c a0 12 02 3e ba 13 b1 bd 1b 3f 19 bd
       0.022888005 0.12702417 -0.08646341 -0.037413698
0003d0 a2 78 c7 3d 62 ff b5 bc 7e 06 f9 bc 31 86 31 bd
       0.09739806 -0.022216503 -0.030398604 -0.043340866
0003e0 ed e9 17 be bf 15 83 bc 64 88 93 3b 4d 4b 81 bd
       -0.1483533 -0.01600158 0.004502343 -0.063131906
0003f0 2d dd 5f be b6 e1 86 3d 91 a5 0d 3d ca 6e 69 bc
       -0.21861716 0.0658602 0.034581725 -0.014247606

network_body._body_endoder.seq_layers.2.bias f4 [128]
000000 2c 9e 27 3b 38 4c 0a 3b 9a 88 0a bc 1a a3 3c 3c
       0.0025576456 0.0021102559 -0.00845542 0.011513496
000010 64 de 69 b9 45 1b f3 bb a1 79 26 3c 55 c1 ba 3b
       -0.00022303459 -0.0074190223 0.0101608345 0.0056993165
000020 04 72 43 bb f3 89 9d bc 5a cc 39 bc d1 0d fe bb
       -0.0029822597 -0.019230818 -0.011340225 -0.007753112
000030 03 60 44 3c f8 30 0c bb d7 d9 56 bb 9c 7b 4f 3b
       0.011985782 -0.0021391492 -0.0032783651 0.003165937
000040 6d 9b 78 bb 8b 9b dd 3b 20 32 bd bb ba 41 04 3d
       -0.0037934438 0.006762927 -0.0057737976 0.032289244
000050 fd 2f 05 bc d1 45 d4 3c 40 e9 24 3c a0 3e 10 3c
       -0.008129117 0.025912197 0.010065377 0.008803993
000060 65 a9 d3 3c cc 52 56 bc d1 99 28 bc 16 3d 83 ba
       0.02583761 -0.013081264 -0.010290579 -0.0010012712
000070 a9 f5 76 bb bb 6e 8b 3b 5a dd 27 bc 4d c7 43 3c
       -0.0037683046 0.0042551435 -0.010245645 0.0119493725
000080 d4 40 29 3c 0c 51 9a bb b2 68 ae ba b0 0f 94 bb
       0.010330398 -0.0047093686 -0.0013306348 -0.0045184717
000090 25 db 41 bc 4c 7c f2 ba 49 b1 ac 3a e5 52 1f 3b
       -0.011832033 -0.0018500178 0.0013175394 0.0024310884
0000a0 ba 2e 13 bc 53 d3 cd 3b 41 dd b8 3b 8a 0b 01 3d
       -0.008983308 0.0062812953 0.00564161 0.031505145
0000b0 c5 f1 61 3c 52 a9 0b bc 09 48 22 bb 9d ee ac bb
       0.0137905525 -0.008524256 -0.0024762175 -0.0052774684
0000c0 f4 98 85 3b 96 8c 8f 3c 97 4c 99 3c 35 fd 89 ba
       0.0040770713 0.017523091 0.018713279 -0.0010527732
0000d0 b3 50 32 bc 03 6e 34 bc 4b 8b 4c bc 54 f6 cb ba
       -0.010883498 -0.011012557 -0.012484382 -0.0015561082
0000e0 43 bf 07 3c e9 49 2e 3c 8e fc c7 3b 14 33 87 3c
       0.008285346 0.010637739 0.006103105 0.016503848
0000f0 e4 ad 8f bc 3a b1 ca 3c 4e fc 4d bc 64 94 a7 ba
       -0.017538972 0.024742711 -0.012572361 -0.0012785313
000100 1d 28 be bb fb 76 75 bc 77 81 7b 3c 6c 2b 0b bc
       -0.0058031217 -0.01498198 0.015350691 -0.008494239
000110 e6 f1 bb bc 16 85 13 3c eb 4b 50 bc 04 87 16 3c
       -0.022942495 0.009003898 -0.012713413 0.009187464
000120 53 c6 60 3c f9 13 73 bb 25 01 c1 3b 18 86 0f bc
       0.013719159 -0.0037090762 0.005890029 -0.008759998
000130 3a 64 82 3a aa cf 03 bc 12 da a7 ba 11 26 9c bc
       0.0009948083 -0.008045116 -0.0012806079 -0.01906112
000140 c1 7e c4 bb d3 7e 83 3c 6d 75 cd bb 88 14 85 3b
       -0.0059965556 0.016051685 -0.0062701018 0.0040612854
000150 86 de be 3b e5 32 03 bc 33 88 88 bc 0e fd a9 3b
       0.0058248667 -0.00800774 -0.016666507 0.005187637
000160 e9 e9 22 3c 22 a6 1a 3c 30 83 1a bc 18 22 90 bc
       0.009943464 0.009439023 -0.009430692 -0.017594382
000170 bd d1 93 3a 33 50 af 39 4c c8 20 3c 5a 9c 87 bb
       0.0011277717 0.00033438354 0.0098133795 -0.0041385116
000180 dc e1 83 3b 39 fe 9c 3b 27 c9 30 bc 6c 1d 54 bb
       0.0040247273 0.004791048 -0.010790146 -0.003236617
000190 b3 e0 b4 3b d9 39 6c 3c 29 6f 57 bb aa 94 1b 3c
       0.0055199503 0.014418089 -0.0032872653 0.0094958935
0001a0 8a 3d d5 3b 01 f3 9c 3b 29 0a 3e bc 23 ff d4 ba
       0.00650758 0.0047897105 -0.011599102 -0.0016250353
0001b0 ad 83 31 bc 68 08 4a bb 3f d9 1e bc 2e 17 c2 ba
       -0.010834617 -0.0030827764 -0.00969535 -0.0014807933
0001c0 36 89 12 bc cf 10 5d 3c 97 e1 64 bb da 9e ee b9
       -0.008943846 0.013492777 -0.00349245 -0.0004551325
0001d0 79 ca c5 3c 6c 51 2d 3c e6 85 71 3c 88 b2 5c 3a
       0.024144398 0.0105784945 0.0147413965 0.0008418937
0001e0 ba b3 3f 3c 18 29 01 3d 53 5a 0a 3c 30 98 98 3c
       0.011700565 0.03153333 0.008444387 0.018627256
0001f0 16 e4 a4 bb 90 f7 5e 3b 16 c7 e7 37 b2 9f 87 bb
       -0.005032073 0.003402207 2.7630053e-05 -0.00413891

action_model._continuous_distribution.log_sigma f4 [1, 2]
000000 09 26 eb bc 3b f5 b0 bc
       -0.02870466 -0.02160131

action_model._continuous_distribution.mu.weight f4 [2, 128]
000000 ae e0 c5 3c d2 03 bd 3c a7 35 5f ba cb ce dd 3c
       0.024154987 0.02307311 -0.000851477 0.027076146
000010 6d c3 d4 bc 0e 6f 94 bc 11 55 16 3b b1 04 15 3c
       -0.025972093 -0.018119361 0.0022938887 0.009095357
000020 a7 89 ec bc c6 b0 5c bb 02 4d 1f bc bf 98 b8 bc
       -0.028874232 -0.00336747 -0.00972295 -0.022533773
000030 40 1e 3e bd ea f3 3f 3c eb 4d 98 3c ba 07 c0 bc
       -0.046415567 0.0117158685 0.018591842 -0.023441184
000040 88 4a 26 bd 89 c3 21 3d 16 98 b2 bb d5 c7 8b 3c
       -0.040598422 0.039493117 -0.005450259 0.01706306
000050 71 1b 7a 3b 23 9c 77 bd c0 a9 90 3c c1 c4 42 bd
       0.003816333 -0.060451638 0.017659068 -0.04755092
000060 d7 5b 18 3d 38 ab 0f 3c 70 43 5c 3b 23 7b 81 bc
       0.03719696 0.008768849 0.0033609532 -0.015805786
000070 2c e9 02 3c 7f b4 da 3c 5f 95 ad bc 80 98 f9 3a
       0.007990163 0.026697395 -0.02118939 0.0019042641
000080 74 68 cb bc 5f 5f c3 bc 12 05 c2 3c c0 14 06 3b
       -0.02483008 -0.023849187 0.023684058 0.0020459145
000090 08 b9 2a ba 0d 49 4d 3b 7e 7e 14 3c a5 7e 1e 3c
       -0.0006512557 0.003132406 0.009063361 0.009673749
0000a0 5e c5 ac bb 5b 76 e0 3c c7 9b b3 3c 57 b3 84 3c
       -0.0052725514 0.027400186 0.021924866 0.016198797
0000b0 de f1 0c bd f5 37 d4 bc 29 d7 02 bd 87 fe f2 ba
       -0.03441035 -0.025905589 -0.031943474 -0.001853899
0000c0 f7 14 fe 3c 32 2d 4c bb 8b 3a ad 3c be cc cb bb
       0.031015856 -0.0031154868 0.02114608 -0.0062194755
0000d0 30 2f 47 bc cb 81 df 3a a6 e0 d0 3a af 63 fa bc
       -0.0121572465 0.0017052231 0.0015936091 -0.030565111
0000e0 3d fa b4 3c 93 56 e2 bb f8 21 96 bc a7 cd 91 ba
       0.02209198 -0.006907293 -0.018326744 -0.0011123911
0000f0 ed 37 97 bc 19 1d a3 3c 72 20 8a bb 26 a6 b2 bc
       -0.018459285 0.019911336 -0.0042152936 -0.021807741
000100 30 fc 26 bc 2e 70 d5 bc 12 0d d5 ba a8 0f 90 3c
       -0.010191962 -0.026054468 -0.0016254506 0.01758559
000110 91 49 08 bd 09 e6 8c 3c 15 2a 14 bd 3b 61 f5 bb
       -0.033273283 0.017199533 -0.036172945 -0.0074883974
000120 97 95 00 bd 88 3b 6d 3c af fa 9b bb 50 a8 09 bd
       -0.03139266 0.014479525 -0.0047601084 -0.03360778
000130 6c 6c ef 3c f4 68 0c bd f9 bb df 3c c5 64 8d bc
       0.029226504 -0.03427978 0.027311312 -0.017259965
000140 4e e6 c8 bc df 3d 0c 3d b5 5c 17 3d 6d 7b 0d 3c
       -0.02452388 0.034238692 0.036953647 0.008635384
000150 35 80 f4 bb 04 22 ee bc 44 2b d3 3b 4d 9b 3b 3c
       -0.0074615725 -0.029068954 0.0064443666 0.011450601
000160 53 01 7b 3c 0a 70 cd 3a 2c ea 84 bc 20 b5 fd ba
       0.01532014 0.0015673649 -0.016224943 -0.0019356348
000170 6a 14 17 bd 0b 32 b6 3c fa 76 00 bb 29 51 d2 bb
       -0.036884703 0.02224066 -0.0019602166 -0.0064183665
000180 01 5d 52 3d fb 96 a4 bc 16 fd 5a 3c f5 39 97 bc
       0.051358227 -0.020091524 0.013366004 -0.018460253
000190 81 42 c5 3c f2 1f 1f bd a9 d8 75 bc 04 93 24 3c
       0.024079563 -0.038848825 -0.015005269 0.010044817
0001a0 11 11 bf 3c d2 e7 18 bb ce 8c 11 bb 8a 1f 92 3c
       0.023323568 -0.0023331535 -0.002220917 0.017837305
0001b0 a8 37 84 ba 9d b9 13 3c 37 65 42 bc aa 6a 4a bc
       -0.0010087388 0.009016422 -0.011864952 -0.012354532
0001c0 34 7b 83 bc b2 c5 4d bc 06 8d 40 bc 86 70 ad 3a
       -0.016049959 -0.012559341 -0.011752373 0.0013232387
0001d0 0b cc 83 bc 41 cc 1c 3c 09 c1 8c bb 72 1f 17 3c
       -0.016088506 0.009570182 -0.0042954725 0.009223806
0001e0 15 68 02 bc 36 2a 69 3d ce 1b 1a 3c 86 7f 0a bd
       -0.007959385 0.05692502 0.009406043 -0.033813022
0001f0 1b 47 05 3d d2 b7 ab 3c a4 f8 6a bc 33 e9 b5 bc
       0.032538515 0.020961676 -0.014341507 -0.022205925
000200 e5 8e 52 bb ab aa 3f bb 6a 81 26 bd 49 36 3d bc
       -0.0032128629 -0.0029246013 -0.040650763 -0.011548587
000210 bd 59 10 bc 9a 90 20 bc a1 aa 90 3b 24 2b 08 3c
       -0.008810458 -0.009800101 0.004414872 0.008311067
000220 8a b1 73 3c dd f6 6d bc d6 a3 08 bc ee 3f 5a bc
       0.014873872 -0.014524189 -0.008339843 -0.013320906
000230 50 8c 1c 3d 33 08 8a 3b 98 9a da bc a6 f8 86 3c
       0.03821975 0.004212403 -0.026685044 0.016475987
000240 5f e8 fb bb a9 4b 0d bc 2b d7 88 bc 55 fb 52 bd
       -0.007687613 -0.008623996 -0.016704163 -0.05150922
000250 2a b2 5a bc e0 af 89 bc e4 2d 35 3c cb 01 cf 3c
       -0.013348142 -0.016807497 0.011058304 0.02526941
000260 54 f2 93 3c e4 d1 b9 bc a7 ea 9f bc ff c3 ac 3c
       0.018059887 -0.022683091 -0.01952107 0.021089552
000270 8d 7d b6 bc 24 03 6b 3c be 64 b6 bc 92 69 da 3c
       -0.022276664 0.0143440105 -0.022264834 0.026661668
000280 68 43 7e 3c 43 fc 1a bc b8 27 4a bc 40 bf 33 bc
       0.015519001 -0.009459558 -0.012338571 -0.0109708905
000290 69 58 e5 bc 53 47 1d bc b3 25 c4 bb bd 9f 3d b9
       -0.027996259 -0.009599525 -0.0059859394 -0.00018083952
0002a0 59 55 c5 bc d6 92 02 3c 5d c3 6b 3b f5 a5 90 bd
       -0.024088548 0.007969579 0.00359746 -0.07062904
0002b0 e5 03 52 3c 14 49 72 bc 87 b4 75 ba e4 3a 39 bc
       0.012818311 -0.014787931 -0.0009372909 -0.0113055445
0002c0 e7 0c 11 3d 26 6a 69 3d 47 6a 17 3c 87 fd 39 bd
       0.035412695 0.056985997 0.009241647 -0.0454078
0002d0 3e 7b 96 bc e6 b7 97 bc 57 31 70 bc fb 46 be 3b
       -0.018369313 -0.018520307 -0.014660201 0.0058068014
0002e0 92 e8 49 3c 24 89 8b 3c 0e 9e b6 3c cc 40 72 3c
       0.0123235155 0.017033167 0.022292163 0.014785957
0002f0 99 ed 14 3c cf 0d 31 3d 1c 20 1f bd 54 04 90 bc
       0.009089851 0.04322606 -0.03884898 -0.017580189
000300 79 b4 54 bb cf 2d b4 bb 3a 90 b5 3c 64 12 e8 bc
       -0.0032456203 -0.005498625 0.0221635 -0.028329082
000310 59 63 49 bb c8 2f c2 3c 83 41 62 bb 32 74 cc bc
       -0.0030729382 0.023704425 -0.0034523911 -0.02495775
000320 44 76 c8 bb a4 99 88 bb 32 30 7d 3c 6e 3c cb bc
       -0.006117614 -0.004168706 0.015453385 -0.024809089
000330 2d ac 03 3c 36 6e 94 bb a1 46 a9 bc 10 eb 29 bb
       0.008036655 -0.0045297397 -0.020663561 -0.0025927462
000340 ac af cb bb 66 bd 81 bc 7f 32 9a bd 7b 08 17 bb
       -0.00621601 -0.015837383 -0.075291626 -0.0023045826
000350 38 41 ce 3c 52 ff bd bc d3 a6 c7 3a 13 b6 14 bb
       0.025177583 -0.023193035 0.0015232213 -0.0022691533
000360 d3 f3 8a 3c 26 62 b9 3c 1d bd 57 bc 91 bf e6 bc
       0.016961968 0.022629809 -0.013167647 -0.028167518
000370 54 2d da 3b 9c 62 95 bb cc 08 8a 3c 0b 4e a7 bc
       0.0066582356 -0.0045588743 0.016849898 -0.020422956
000380 d6 e8 05 bd 9d 50 4c 3c bb 9a 2c bc 93 49 97 bc
       -0.032692753 0.012470392 -0.0105349375 -0.0184677
000390 73 e1 f6 3b 7d 2f 0f bc 60 19 cb 3c 96 7c 37 bd
       0.0075342 -0.008739349 0.024792373 -0.04479655
0003a0 43 61 b6 3c c8 0b 1d bd 88 a7 36 bc d1 fc d9 3b
       0.022263175 -0.038341314 -0.011148341 0.0066524525
0003b0 cc c4 a8 bc 77 ed 95 ba 0b 4d 94 bc 72 5d a8 3c
       -0.020601653 -0.0011438568 -0.018103143 0.02055237
0003c0 a2 ec eb 3c 1c 0b 8e 3c ad f5 dd bb dc 4c bf 3a
       0.028799359 0.017339282 -0.0067736716 0.001459505
0003d0 86 4b 3f bd 12 9d 49 3c cd 78 7b 3d c0 7a 64 bb
       -0.046702884 0.012305515 0.0613945 -0.0034863204
0003e0 56 69 38 3d 64 04 3a bd 8f 2a 94 3c ec 82 02 3d
       0.04502233 -0.045414343 0.0180867 0.031863138
0003f0 dd fb 0e bd d9 27 67 bb 4a 79 e8 3a 7c f7 cd 3c
       -0.034908164 -0.0035271554 0.0017736342 0.025142424

action_model._continuous_distribution.mu.bias f4 [2]
000000 d5 87 7d 3b 88 6b 2f 3c
       0.0038685699 0.01070679
