results/Ball/Ball/Ball-500009.pt (torch, 463777 bytes, 36 tensors)

network_body._body_endoder.seq_layers.0.weight f4 [128, 13]
000000 02 99 04 3f bf 9e 0c 3f 8c 20 93 be a6 ce 6d be
       0.5179597 0.5492973 -0.2873577 -0.23223361
000010 66 71 30 be e5 ca b8 3e 87 17 4b be 8f 01 19 3e
       -0.17230758 0.36092296 -0.19833194 0.14942001
000020 76 c9 81 3e 16 df 4d 3e b8 27 39 3e a4 6e 9b be
       0.25349015 0.20104632 0.18081558 -0.3035785
000030 72 72 b1 be 27 a5 4d bd 37 72 f1 be 4a 0a d0 be
       -0.34657627 -0.05020633 -0.47157452 -0.4063285
000040 df 11 3d bd 75 03 1f 3f dd 22 81 3d c4 7a 8f ba
       -0.04615962 0.6211465 0.06305478 -0.0010946621
000050 cb fd 4f be f4 c6 27 be 42 3a e2 bd 26 d7 d7 be
       -0.20311658 -0.16384488 -0.11046268 -0.42156333
000060 5c 47 bb be ee 7e d0 be 73 03 10 bf d2 5f 94 be
       -0.3657788 -0.4072184 -0.56255263 -0.28979355
000070 ec 71 60 3c a8 d7 96 be 27 2f 1a be 54 38 e3 bc
       0.013699036 -0.29461408 -0.1505705 -0.02773682
000080 fb 91 56 be 25 14 b0 be e0 fd 23 3e 1d da e1 3d
       -0.20954125 -0.3439037 0.16014814 0.1102793
000090 91 f2 51 be ca 2f 58 be c8 d2 48 be 2a eb 27 bf
       -0.20502688 -0.2111198 -0.19611657 -0.65593207
0000a0 b5 f1 56 3e a1 ba bf bd 7a 77 93 3e 48 3c 10 3f
       0.20990641 -0.093617685 0.2880209 0.5634198
0000b0 43 4c 19 3f 01 24 f8 3d 7b 47 89 3e 95 34 17 3e
       0.5988199 0.12116242 0.26812348 0.14766152
0000c0 21 98 0b bd 10 98 cb 3e 69 e5 48 3e 55 53 e8 3e
       -0.03408063 0.39764452 0.19618763 0.45376077
0000d0 e6 56 4e be 5d 98 82 be b1 80 86 be 51 6a 15 be
       -0.20150337 -0.2550687 -0.2627006 -0.14591338
0000e0 68 22 67 3e 76 0f 79 3e 46 05 88 3c e2 ed ac 3d
       0.22571719 0.24322304 0.016604077 0.0844381
0000f0 c4 18 20 bf 28 2c 33 3c e5 94 d3 3c 8b 47 ba 3e
       -0.6253779 0.010935821 0.025827834 0.36382708
000100 1b 88 79 bd 55 ac 19 3e 4c 43 9a be dd f7 b2 bd
       -0.060920816 0.15007146 -0.30129468 -0.087386824
000110 bb 8c ef 3e 4a e4 4c be e1 03 7a be e9 f2 22 bf
       0.46787056 -0.2000896 -0.24415542 -0.636519
000120 d9 04 ac 3d 59 ad a2 3d f6 3c 80 3e b5 00 85 3e
       0.08399362 0.0794322 0.2504651 0.25977102
000130 1d e5 c2 bc d6 23 a3 be 6e 2d cf be 7a 1e 51 be
       -0.02379089 -0.31863278 -0.40464348 -0.20421782
000140 e0 39 00 bf 5f f8 bb bd 27 20 f8 3d 79 12 19 3e
       -0.5008831 -0.091782324 0.121155076 0.14948453
000150 02 cb 79 be 38 f7 52 3d be 48 3f 3f 90 02 cf bd
       -0.24393848 0.051505297 0.7472037 -0.10107911
000160 17 a8 1d be 48 12 94 3e c1 7f 64 3e e6 09 2b 3e
       -0.15396152 0.28920197 0.22314359 0.16702995
000170 de 86 e8 3d ea 74 a5 3e 44 80 87 be 3c 1b 0c 3d
       0.11353849 0.3231576 -0.26465046 0.03420566
000180 2e a8 9b 3e 4f 04 dc 3e bf b8 32 bd de 6f c5 bd
       0.30401748 0.42972037 -0.04363322 -0.096404776
000190 e7 60 ad be 6d ac b0 3d a4 79 06 bf dc b8 27 3c
       -0.33862993 0.086266376 -0.5252936 0.010236945
0001a0 c0 4f c8 3c 43 66 cf 3d 7d 57 8e 3d b2 4a 41 3e
       0.02445209 0.10126927 0.06950281 0.1887615
0001b0 c7 0c 16 bd f4 45 0e 3e 17 af b9 3e 2b 47 94 bd
       -0.03663328 0.13893872 0.36266395 -0.07240137
0001c0 1a 8d 49 3e e0 d6 00 3e 4d 25 98 be fd 1c 60 3e
       0.19682732 0.12581968 -0.29715958 0.21886058
0001d0 e1 5c be bc 67 f0 a5 3d 38 c5 ff bd ce 7e b6 bd
       -0.023237647 0.08102494 -0.12488788 -0.08910905
0001e0 a8 ba b4 3b d5 eb 90 3e 7a 85 5f 3e 82 a7 93 3c
       0.005515415 0.28304926 0.21828261 0.01802421
0001f0 62 81 d0 bd 5f cb 07 bf f3 0e 99 3e 60 49 e1 3d
       -0.10180928 -0.53044695 0.29894218 0.11000323
000200 e2 51 34 be 72 f0 86 3d 26 17 af be 26 9a a6 bd
       -0.17609361 0.0658883 -0.34197348 -0.0813487
000210 13 e1 4d be 5c a5 8b be 6d 1f 87 3e 94 47 85 3e
       -0.2010539 -0.27274597 0.26391163 0.26031172
000220 85 c9 28 3e f0 69 ae 3d fa 74 dd bd 4e f7 49 3e
       0.16483124 0.085163 -0.10813327 0.19723246
000230 96 52 1c be 67 54 53 be 83 9a 9e be 40 05 88 be
       -0.15265879 -0.20637666 -0.30977258 -0.26566505
000240 5a a1 a2 bd 15 3f e4 be c9 6e b0 bb 23 58 07 3e
       -0.079409316 -0.44579378 -0.0053843004 0.13217215
000250 42 3c ba 3d 6a b2 88 bd cf 6c b1 3c 34 ad 1f be
       0.090935245 -0.06674655 0.02165833 -0.15593415
000260 e7 7e 7a 3e 45 18 5c 3c 40 35 90 3e c0 46 56 3e
       0.24462472 0.013433521 0.28165627 0.20925426
000270 fe 46 83 bd b7 48 b9 3c 03 99 af be 0e 73 35 3d
       -0.06410025 0.022617681 -0.34296426 0.044299178
000280 8b 8f d9 3e 70 ae 8e be d7 c7 e4 3d ad dd ca be
       0.42492327 -0.2786746 0.11170929 -0.3962225
000290 bd bb d6 bc 51 ea bd 3c 54 fd 6a be e2 3d 22 bf
       -0.026212567 0.02318302 -0.229482 -0.63375676
0002a0 ba b7 a8 bd 11 88 a7 3e eb b3 dc be 36 20 f1 be
       -0.08238168 0.32720998 -0.43106017 -0.47094887
0002b0 95 d8 c7 3e 5b ed 30 3e 43 aa ac 3d 35 f2 23 3e
       0.39032426 0.17278044 0.08430912 0.16010363
0002c0 ca f6 c7 bd d3 f4 70 bd b4 45 39 be 10 5d 61 3e
       -0.09763868 -0.058827233 -0.18092996 0.22008157
0002d0 49 e3 10 bf f8 94 d1 be f5 3e e5 3d c6 83 a9 bd
       -0.5659681 -0.40933967 0.11193649 -0.08277087
0002e0 1f 5d 90 bd e4 39 9f bd cf d8 9e 3c 20 7f a4 3e
       -0.070490114 -0.07774714 0.019390492 0.3212824
0002f0 3c 67 1c be f0 40 8b 3e 8c 00 8d 3b 3a 4e 52 be
       -0.15273756 0.2719798 0.0043030437 -0.20537654
000300 2b 18 a1 3d 35 e5 58 3d a5 f0 a7 bd 0b 54 31 3d
       0.07865938 0.052952964 -0.08200196 0.04329304
000310 52 25 e6 3e 08 ec 64 bc cb 1d ce 3e 93 b8 9f bd
       0.44950348 -0.01397229 0.40257105 -0.077988766
000320 2e 92 af be 90 23 b7 be 93 ee ba 3d 0e 5e 11 bd
       -0.34291214 -0.3576932 0.09127536 -0.03549009
000330 b7 8f f4 bd 55 6a a3 be 1e 91 10 3e a5 5a f8 3d
       -0.11941474 -0.31917062 0.14117858 0.12126664
000340 1d 3d 7e be 9d b6 bc be 7d 63 a2 bd e5 61 c3 3e
       -0.24828 -0.36858073 -0.07929132 0.38160625
000350 1c e9 ba be 7e 3e bb bb a7 cb 32 3f ab 15 b9 3e
       -0.36505973 -0.0057142368 0.69842 0.36149344
000360 d7 2d ac be ff f3 95 be ca 2f 1b 3f c2 4d 11 3f
       -0.33628723 -0.29287717 0.60619795 0.56759274
000370 26 03 0e bf e2 fc 58 3e c2 23 99 be 73 44 9b 3e
       -0.55473554 0.21190217 -0.29910094 0.3032566
000380 f2 f3 61 3e a2 04 1b 3e af e6 02 3d 40 d1 52 be
       0.22065714 0.15138486 0.03195828 -0.20587635
000390 ad f6 38 be e8 ad 3d 3d 54 6f ba 3d 6b bc 90 be
       -0.1806285 0.046308428 0.091032654 -0.28268752
0003a0 1d ce a3 be 23 d5 b5 3e 80 38 95 3d 31 ca 16 3d
       -0.3199319 0.35514173 0.07286167 0.03681392
0003b0 96 0d 78 3d 79 4f 53 bc 38 4a d1 3e a6 dc 75 3d
       0.06055983 -0.012897366 0.40876937 0.06002488
0003c0 d9 61 a9 be 3e 2a 2e be 27 63 0c be 8e 37 fc 3e
       -0.33082464 -0.17008302 -0.13709699 0.49261135
0003d0 67 23 98 3d cf 1e 03 3f f9 d8 20 3e fa 5d aa 3e
       0.074286275 0.51218885 0.15707768 0.33274823
0003e0 ca 95 66 be 80 db a2 3d 50 2f 91 be 27 8a ee be
       -0.22518077 0.079520226 -0.2835641 -0.46589777
0003f0 bc 71 23 bd f0 90 8d 3e 29 b5 83 be 75 7a ad bd
       -0.039903387 0.2764964 -0.25724152 -0.084706225

network_body._body_endoder.seq_layers.0.bias f4 [128]
000000 44 01 2b bc 02 2e 8d 3c 13 28 90 3c 3a 26 13 3d
       -0.0104373135 0.017233852 0.017597234 0.035925128
000010 b4 dc b0 bc ea 9d 65 3a a1 48 c9 3b de 6f 47 3b
       -0.021589614 0.0008759188 0.0061426912 0.0030431668
000020 40 ed 60 3c b2 ff 3e bc 44 2e f3 3c c7 fd 05 3d
       0.01372844 -0.011657642 0.029685147 0.032712724
000030 ca 92 cd bc ae b3 96 ba 2e fc 01 3c 9f c5 34 3b
       -0.025094409 -0.001149764 0.0079336595 0.0027583612
000040 cd 4e 25 bc 01 58 22 3c 3e 41 35 3c 9c 86 00 3d
       -0.010089588 0.009908677 0.011062918 0.031378374
000050 43 35 64 3c 86 c0 1d bb 0a cc db 3b b0 8d 22 3c
       0.013928714 -0.0024071052 0.006707673 0.009921476
000060 9b 27 02 bb 32 22 29 bb 57 18 95 3c 9c 53 c5 3b
       -0.0019860032 -0.0025807736 0.018200083 0.00602193
000070 9c f6 3d 3b 4c a5 ae 3c 9e 9e 73 3a 4a ac c8 3d
       0.0028986102 0.021319054 0.000929335 0.097984865
000080 41 d3 10 3d 19 0e a9 39 5e 35 66 3d 39 f0 3e 3b
       0.035357717 0.00032244695 0.05620324 0.0029134883
000090 ae 69 7e ba 80 70 20 3d 70 1f 5a 3a 56 4b 54 3d
       -0.00097050786 0.03916979 0.00083207246 0.05182966
0000a0 e3 4a e5 bc e6 6e 95 bc ca fc 0d 3c 1c 32 9a 3d
       -0.02798981 -0.018241357 0.008666227 0.07529089
0000b0 83 b5 a2 3d 64 24 1a 3c 9c f3 23 3c 94 a5 87 3c
       0.07944777 0.00940809 0.0100068115 0.016558446
0000c0 86 35 8b 3b d3 62 ff 3c fa a6 47 3c 5f ba 91 3c
       0.004248324 0.031175053 0.012185806 0.017789064
0000d0 a7 2a 42 bc 94 e1 c0 bc 31 65 c2 bb 62 78 4d bb
       -0.011850989 -0.023545064 -0.005932473 -0.0031352271
0000e0 be 37 b9 b6 6d fa 1f 3b 6e a3 2c 3d 70 94 2e bc
       -5.519919e-06 0.002441074 0.042148046 -0.010655507
0000f0 c5 09 9e 3d a8 6f 1b 3c 1a b4 bc 3c ad 32 a1 3d
       0.07716707 0.00948707 0.023035098 0.07870994
000100 2f bf 87 3c 5b eb 09 bc 27 1f 9b 3b ea 4f 4d 3d
       0.016570656 -0.0084179295 0.0047339383 0.05012504
000110 37 0a 96 3c c5 7f 0b bc 49 0b 3c bc 55 47 6a 3c
       0.018315418 -0.008514349 -0.0114773 0.014299233
000120 95 57 a3 3c 28 8d 52 3c 1c a7 0d 3c e7 51 99 3c
       0.019939223 0.012851037 0.008645799 0.018715812
000130 a1 74 97 3c 24 4e 0e 3d 9f 5b 61 bc 65 09 2e bc
       0.01848823 0.03474249 -0.013754754 -0.010622357
000140 e8 b1 24 3b d7 4b c3 3c 30 b1 05 3d d8 8a 02 3c
       0.0025130454 0.023839874 0.032639682 0.007967673
000150 22 1c 3a 3a e4 a1 fb b9 73 20 b0 3c ad 96 25 bc
       0.0007099529 -0.0004799507 0.021499848 -0.010106725
000160 a6 45 82 3c e2 8d 48 3c 41 a3 00 3d 5b 83 16 3c
       0.015902352 0.012240859 0.03140569 0.009186591
000170 c0 5b ab 3c 40 e3 86 bc 78 29 9a bc 10 0d c8 3d
       0.020917773 -0.016465783 -0.018818602 0.097681165
000180 df a6 86 3b 93 62 00 ba 2b b5 6e 3c 9f 1f e1 3b
       0.004109248 -0.0004897501 0.014569561 0.0068702246
000190 53 df 8d 3c 29 ed c8 ba 78 02 4b 3c a7 81 df 3c
       0.017318403 -0.0015329468 0.012390725 0.027283503
0001a0 66 fe 76 3a fc d9 2c 3c 07 5c 03 3a dc 25 33 3d
       0.00094220636 0.010550018 0.00050109666 0.043737277
0001b0 0c 4f 8d bb f1 c7 11 bc ca a7 8c bc f0 cb be bc
       -0.0043124016 -0.008897767 -0.017169852 -0.023290604
0001c0 f7 f0 77 bc 1b 56 f1 3b 0b 4e e2 3d f7 37 8a 3c
       -0.015133134 0.007365001 0.11050042 0.01687239
0001d0 e3 1a 38 bc 61 e2 08 3d 14 8f 15 3c 10 6b 0b 3c
       -0.011236879 0.033419017 0.009128351 0.008509412
0001e0 af 53 1c 3c 29 71 8c 3c 1a 97 95 bc ad b2 63 bc
       0.009541436 0.017143803 -0.018260527 -0.01389758
0001f0 bf ff 86 3c 47 52 36 bc 7e dd 93 bc f1 f3 5c bb
       0.016479371 -0.011128015 -0.018049952 -0.0033714736

network_body._body_endoder.seq_layers.2.weight f4 [128, 128]
000000 18 09 64 3d 16 f9 41 bd 7f 2b 31 3d 1f 06 47 bd
       0.055672735 -0.047356687 0.04325437 -0.048589822
000010 74 a7 70 3c dd 20 e7 3d 48 fc 23 3d 81 b6 8e bc
       0.014688361 0.11285565 0.040035516 -0.017421009
000020 fb 34 8e bc 1d 54 28 3d 0a b8 00 3e e5 8d 09 be
       -0.017359247 0.04109584 0.12570205 -0.13433035
000030 3e a9 8a bb f5 92 66 be c3 ff 0d 3d aa be 40 3d
       -0.004231601 -0.22516997 0.03466774 0.04705683
000040 83 2e e0 bd a5 fc 0d 3e 73 0e 2b 3e 37 85 b5 3d
       -0.109463714 0.13865907 0.1670473 0.08863299
000050 6c ee ae 3d 03 c0 9b bd 4f fc 83 bd df 09 b9 3c
       0.08541569 -0.07604983 -0.064446084 0.022587715
000060 b8 a7 ab 3d a0 e1 17 be a4 9c 89 3d 42 93 00 3d
       0.08381599 -0.14832163 0.0671933 0.031390436
000070 aa 23 82 3d 39 59 20 be 56 b1 2b 3e 48 8c 97 3d
       0.06354459 -0.15659036 0.16766867 0.073998034
000080 e0 58 14 be 49 23 22 bd 36 a8 33 3e ca e0 57 bd
       -0.14487028 -0.03958443 0.17544636 -0.05270461
000090 00 6e 73 bd 0c 07 b9 bc 2c af 5c bd 78 d8 4e 3e
       -0.059431076 -0.022586368 -0.053877994 0.20199764
0000a0 c0 a8 dc 3c 89 1b 9f 3d 9a 9f 3c bd f2 4d 96 3c
       0.026935935 0.07768924 -0.046050645 0.018347714
0000b0 73 9d 02 be 68 86 d8 bc 40 e9 4a 3e c6 6b 0a bc
       -0.12755375 -0.026431277 0.1981554 -0.008448547
0000c0 7b 02 b4 bd b0 e7 ac 3d b4 32 03 be a4 29 2d bd
       -0.087895356 0.084426284 -0.1281231 -0.04227604
0000d0 c6 a1 90 3c 5a bb 17 3d a6 d9 a3 bd c8 75 c6 3d
       0.017655265 0.037043907 -0.080004975 0.09690434
0000e0 1f 3c 8c 3d 2d a7 25 bd 30 59 fa bd 65 cb 4c 3e
       0.06847405 -0.040442634 -0.122240424 0.19999464
0000f0 4a a2 26 3c 18 89 da 3d ae cd 49 bd 6c 7e 9a 3d
       0.010170529 0.1067068 -0.049268417 0.07543644
000100 38 22 c5 bd 93 1f 94 bc 6d 4d b8 bd 21 96 91 3c
       -0.09625667 -0.018081462 -0.08999143 0.017771782
000110 d4 3d 1b 3e 3e ee 48 bc 1c 50 74 3c d8 c1 8b 3e
       0.15160304 -0.012263833 0.014911678 0.2729633
000120 7b f2 c0 3d 8f 86 f8 3d 49 99 90 3e de a6 3b be
       0.094212495 0.1213504 0.28241947 -0.18325374
000130 b6 98 89 bd 82 09 2b be d6 37 17 be 38 da 40 3d
       -0.067185804 -0.16702846 -0.14767393 0.04708311
000140 40 c0 11 bc 58 68 ab bd f7 7d a3 3d 7b 4b 54 3d
       -0.008895934 -0.08369511 0.0798301 0.051829796
000150 c6 d6 7a bc df e2 26 bd 5c 88 22 bd 71 a6 04 3e
       -0.015309995 -0.040743705 -0.039680824 0.12954117
000160 c2 c0 64 3d 08 15 dd bd f2 68 89 3d af 04 52 bb
       0.05584789 -0.10795027 0.0670947 -0.0032046249
000170 a9 28 1f 3e 3d 7e f6 3d 7c ee 6d 3d 57 f7 36 be
       0.15542854 0.12035797 0.058088765 -0.1786779
000180 15 9f 56 bd 70 86 95 3d 1d ae 21 bd ee 04 06 3e
       -0.052397806 0.073010325 -0.039472688 0.13087818
000190 8a 56 50 be 31 3b 2b 3d 21 34 a5 3d 33 0c 97 bd
       -0.20345512 0.041804496 0.080665834 -0.07375374
0001a0 58 20 04 be a6 43 37 3d 60 ae 6b ba f5 6f fd bd
       -0.12902963 0.04474225 -0.00089905225 -0.1237487
0001b0 2e a0 dd bd 99 b0 e4 3d 3d ff cd 3d 03 81 24 bd
       -0.108215675 0.11166496 0.100584485 -0.040162098
0001c0 ff 95 7f bc 2d d9 34 be 80 86 17 be c3 d2 d7 3d
       -0.015599727 -0.17660971 -0.14797401 0.105382465
0001d0 a4 15 ca 3d 9b 78 97 bc f7 fa 97 3d f8 b5 8d 3d
       0.09867409 -0.018490126 0.074209146 0.069194734
0001e0 f6 bc ac bc 5a 7e 08 bd da ac 28 be 95 16 fd 3c
       -0.021086197 -0.033323623 -0.16472188 0.030894557
0001f0 c3 bb 43 bc 6c 64 9b bc 39 01 1b be a6 41 84 bd
       -0.011946621 -0.018968783 -0.15137185 -0.06457834
000200 14 7d 50 bc 4f b5 9a 3d ea ed be bd 55 25 ce 3d
       -0.012725133 0.07554113 -0.09322722 0.10065714
000210 6d 88 3c 3d 6c ea 30 bd 53 c6 bc 3d a8 cb 76 bd
       0.046028543 -0.043192312 0.09217515 -0.060252815
000220 3a c8 75 bd 55 fa 1d be 1a 43 b0 3d 18 af 8d 3d
       -0.060005404 -0.15427525 0.086065486 0.06918162
000230 54 59 db bd 2b 65 17 be 00 bd 87 bd 1e 90 f1 3d
       -0.10710397 -0.14784686 -0.06627846 0.11795066
000240 3e 62 c4 bd 2a 32 0b 3d c3 41 80 bb e2 25 ea bd
       -0.09589051 0.033983387 -0.0039140894 -0.11433007
000250 d4 a8 5c bc 7c c9 90 bc eb a1 35 3e 1d b9 06 be
       -0.013467986 -0.0176742 0.17737548 -0.13156553
000260 44 50 85 bd 99 1c 13 3e fc 50 77 bd ab 4d df 3d
       -0.0650945 0.14366378 -0.060379967 0.10903486
000270 4f f2 b3 bc 53 27 92 3b ed a1 0f be 79 19 b1 bd
       -0.021966128 0.004460254 -0.14026614 -0.08647437
000280 00 2e 5c bd ba 70 12 3c c3 9d 94 bb ba 18 ef 3d
       -0.053754807 0.008938009 -0.004535408 0.11674638
000290 18 7b 05 3e 7f 86 09 bd da ce b2 bd 49 26 26 be
       0.13035238 -0.03357553 -0.0873086 -0.16225542
0002a0 95 92 d5 3d 4e 09 28 bd 82 ee d6 bd ea a8 54 3d
       0.10428349 -0.0410245 -0.104947105 0.0519189
0002b0 b8 c0 d2 3c 17 c6 eb bc 32 71 d8 3a bf 8f b5 bc
       0.025726661 -0.02878098 0.0016513227 -0.02216327
0002c0 11 a7 a2 3c 7b 1b 6f bc 24 fe 72 3d 3a 55 af 3d
       0.019855054 -0.014593954 0.0593244 0.085611776
0002d0 6c 72 f6 3d af 37 0a be ca 1f 08 bb 30 b5 c6 bc
       0.12033543 -0.13497804 -0.00207709 -0.024256319
0002e0 29 6c 31 bd 6a 09 8c bd 26 f0 d2 3d 47 38 8b 3d
       -0.04331604 -0.06837733 0.10299711 0.067978434
0002f0 38 a7 4a bc 29 a5 a3 3c 16 64 68 bc a8 7e 83 3c
       -0.01236897 0.019976215 -0.014184019 0.016051605
000300 88 5c 52 3a fa 38 fe 3d 65 43 b2 bc e5 91 c6 3d
       0.00080246525 0.12413211 -0.021760652 0.09695796
000310 1f 5e 37 bc 69 63 ed bd 25 4d 21 be ad 3a 2e bd
       -0.011191874 -0.115912266 -0.15752085 -0.042536426
000320 4f 4e f2 3d 57 ba 91 3d 44 a8 8b bd 8b f5 b3 bd
       0.118313424 0.0711562 -0.068192035 -0.08787068
000330 63 33 3f 3e e4 f9 9b 3c cc 60 8b bd 85 30 e3 3c
       0.18671946 0.019040056 -0.06805572 0.027733097
000340 83 4e 67 3c 0c 52 af bd b3 d7 16 3d 83 0b 9a bd
       0.01411784 -0.08560571 0.0368268 -0.07521727
000350 75 1e 9c 3d b2 8f 4a bc ec 38 22 3e 9d 73 0c 3e
       0.07622997 -0.012363361 0.15842026 0.13715978
000360 91 bc 84 bd bc a8 bf bc 82 0e 41 bc f4 6b 32 bc
       -0.06481279 -0.023395889 -0.011783244 -0.010889996
000370 a9 ee 93 3d 34 e7 50 3d 55 26 1d be 49 7d 8a 3d
       0.07223255 0.051001742 -0.15346654 0.067621775
000380 66 92 a6 3d f9 10 63 bd 41 9a 12 3e f0 12 94 3d
       0.08133392 -0.05543611 0.14316656 0.072301745
000390 27 cc d7 bc 9a 08 1b be df eb 84 3d fa d6 da 3d
       -0.026342465 -0.1514 0.06490301 0.10685535
0003a0 27 c8 cf bb 3a f3 d9 39 9e 7d 0d 3e bd 1c cd bc
       -0.0063409987 0.00041570683 0.1381745 -0.025038118
0003b0 1b 88 13 3e f6 0c f0 bd b0 c4 5a 3e 35 91 ee bd
       0.14407389 -0.11721222 0.21364093 -0.1164879
0003c0 6b 16 bf 3c aa c3 00 3e 85 da cb bd 36 ca 1c bd
       0.02332612 0.1257464 -0.09953789 -0.03827878
0003d0 4a 0c c4 3d 75 8b 12 bc fc 2b f6 bc 22 b5 1e bd
       0.095726565 -0.008944382 -0.03005027 -0.03874696
0003e0 09 e1 19 be 7b 78 a4 bc 8e ee 55 3b cf 0b 82 bd
       -0.1502725 -0.02007698 0.003264341 -0.063499086
0003f0 1f 39 60 be 46 d8 93 3d 1d 15 1c 3d a4 1c 7b bc
       -0.2189679 0.07218985 0.038106073 -0.015326653

network_body._body_endoder.seq_layers.2.bias f4 [128]
000000 a3 e6 c0 3a b7 c2 e6 b9 35 bd 71 bc 78 95 58 3c
       0.0014717173 -0.00044014092 -0.014754583 0.01321923
000010 df 87 94 3b fd 29 0b bc 87 7c 88 3c 1d e4 09 3c
       0.0045327987 -0.0084938975 0.016660942 0.008416203
000020 68 bb 57 3c 5b bb 25 bd 0d 82 87 bc 08 ba a1 bb
       0.01316724 -0.04046188 -0.016541505 -0.0049355067
000030 78 27 a7 3c 54 3b 6c bb e3 ce f5 bb d0 a9 fe 3b
       0.020404562 -0.0036046105 -0.0075014695 0.007771708
000040 f3 25 fe ba 18 76 ff 3b ef 9b b9 ba 30 93 49 3d
       -0.0019389972 0.0077960603 -0.0014160852 0.049212635
000050 a3 9a 69 bc d2 d6 64 3d 15 77 a7 3c 8f 51 90 3c
       -0.01425806 0.05586893 0.020442525 0.017617015
000060 fc 58 0f 3d cb 42 df bc cf 2d 8a bc a6 08 51 3c
       0.03499697 -0.027253529 -0.016867546 0.01275841
000070 30 ac 08 3c dd aa 44 3c a0 86 61 bc a0 03 a3 3c
       0.008341834 0.012003628 -0.013765007 0.01989919
000080 0d 40 86 3d ab 6b 4a 3a 44 88 96 bb 89 fb 8f bb
       0.065551855 0.0007721732 -0.004593881 -0.004393999
000090 34 74 ab bc d0 ba 5d bb b5 c0 91 3a 45 1b b7 3a
       -0.020929433 -0.0033833273 0.0011120053 0.0013969919
0000a0 d2 42 4f bc 5e 45 1a 3c 90 7d 8e 3c d7 7d 4d 3d
       -0.012650209 0.0094159525 0.017393857 0.05016884
0000b0 69 c1 ae 3c 6f 09 5e bc d3 b0 98 ba df 09 b9 ba
       0.02133246 -0.013552054 -0.0011649377 -0.0014117322
0000c0 00 6c 5d 3c bd 9e 31 3d 64 47 29 3d 9a fc 77 3a
       0.013514519 0.043364275 0.04132785 0.0009459943
0000d0 05 c2 80 bc 50 63 8c bc 84 49 9a bc 6f 86 e3 39
       -0.015717516 -0.0171372 -0.018833883 0.00043396975
0000e0 e1 3a 4d 3c 10 57 8b 3c 8d 48 47 3c 5d 1f eb 3c
       0.012526245 0.017009288 0.012163294 0.028701479
0000f0 3e a8 06 bd 91 be 18 3d 84 1c 05 bc d6 a0 a3 3c
       -0.032875292 0.037291113 -0.008124474 0.019974153
000100 e6 5f a6 bb 88 bb 2b bc ea d1 ff 3c 21 6c 66 bc
       -0.00507735 -0.010481723 0.031228025 -0.014063866
000110 63 6c e4 bc b7 4a 83 3c 61 c3 02 bc bf fe e3 3c
       -0.027883714 0.016026838 -0.007981152 0.027831433
000120 b2 8a 2d 3d 44 fd 26 39 f9 7f 9f 3c 45 84 30 bc
       0.0423686 0.00015925342 0.019470202 -0.010773723
000130 ca 31 91 3b a8 b7 2c bc ad aa 10 ba da 38 87 bc
       0.004430984 -0.010541834 -0.0005518597 -0.016506601
000140 f8 af c4 bb 4e a5 69 3c 03 12 82 bc 2c cd b9 3b
       -0.0060024224 0.014260603 -0.01587773 0.0056702103
000150 3f 52 a9 3c ac aa 24 bc 2b 90 ab bc b4 dc 2a 3b
       0.0206691 -0.010050457 -0.020942768 0.002607149
000160 00 61 4a 3d c8 88 7a 3c bb c0 b0 bb a4 98 eb bc
       0.049408913 0.0152914 -0.005394069 -0.028759308
000170 20 a5 d5 3b b2 2d 1d bb ab bd 87 3c 60 1d a4 3c
       0.0065199286 -0.0023983535 0.016569933 0.020033538
000180 20 61 04 3b 37 1c 7f 3c a9 5d 94 bc b3 f9 c6 b9
       0.0020199493 0.015570692 -0.018111067 -0.00037951543
000190 55 f5 d0 3b 75 60 44 3d 5b b3 de 3b 47 8e 29 3c
       0.006376902 0.04794355 0.006796283 0.010348863
0001a0 a1 5b 16 3c 71 20 8f 3c 0d d3 8e bc 7c aa 8d bb
       0.0091771195 0.017471524 -0.017434621 -0.004323302
0001b0 0e 9a 84 bc 89 40 d7 3b 33 69 6e bc fd 8b 05 bb
       -0.01618674 0.0065689725 -0.014551449 -0.002037763
0001c0 aa fb b1 bb fd 37 b0 3c 82 18 d1 3b f9 3a 4c 39
       -0.005431612 0.021511072 0.0063810954 0.00019476925
0001d0 51 61 38 3d 9f a7 8a 3c b8 2c c5 3c 21 69 85 bb
       0.045014683 0.016925631 0.024069175 -0.0040713702
0001e0 a9 52 a7 3c 63 a2 41 3d 1b 48 6d 3c d8 4c f2 3c
       0.020425158 0.047274005 0.014482523 0.029577658
0001f0 79 c3 20 bc 8c 4f ea 3b 17 6b c7 3b 4d d7 d9 3c
       -0.009812229 0.007150596 0.006085764 0.026591921

action_model._continuous_distribution.log_sigma f4 [1, 2]
000000 15 5b 4e bd 50 01 f8 bc
       -0.05037983 -0.030274063

action_model._continuous_distribution.mu.weight f4 [2, 128]
000000 aa 89 dd 3c 0b 98 b8 3c fe b8 95 bb 5c 48 43 3d
       0.027043182 0.022533437 -0.004569172 0.04767643
000010 8a e9 01 bd 76 f2 94 bc 15 07 44 3b f1 55 fb 3b
       -0.03171686 -0.01818202 0.0029911448 0.007670157
000020 b1 83 ec bc d0 5c fc 39 7b 4c 5d bc bf ad e2 bc
       -0.02887139 0.00048134336 -0.013507004 -0.02767074
000030 bd c5 81 bd dc f4 d6 3b ff 1c 8f 3c 1f 86 e7 bc
       -0.06336544 0.006559951 0.017469881 -0.028262196
000040 25 cc 2d bd 20 dc 2e 3d 05 43 11 bc d5 a2 9f 3c
       -0.042431016 0.042690396 -0.008866076 0.019486824
000050 00 74 54 3b f7 a8 a2 bd 78 36 d2 3c 8b 56 91 bd
       0.0032417774 -0.07942384 0.025660738 -0.07096585
000060 f1 38 6b 3d bc af 1c 3c 2d c1 a0 3b 42 b8 0c bd
       0.05742735 0.009563383 0.004905841 -0.03435541
000070 d3 af ca 3c 30 56 0b 3d f3 65 b0 bc a5 99 38 3b
       0.024742043 0.03401774 -0.021532988 0.002816775
000080 fe 72 1c bd b1 c6 fe bc 1a 2b d6 3c 8b e8 e8 3c
       -0.038195603 -0.031100603 0.0261436 0.028431198
000090 07 85 61 bb 5f 20 3f 3c 43 a4 35 3c 52 1d 14 3c
       -0.0034411566 0.011665433 0.011086526 0.009040194
0000a0 11 09 8b bb fa ba f3 3c b5 a7 ec 3c 6e 42 f2 3c
       -0.004243024 0.029752243 0.028888563 0.029572692
0000b0 79 5a 1d bd 9c a6 f0 bc 75 da 0c bd 4b 0b ca bb
       -0.03841636 -0.02937632 -0.034388024 -0.006165897
0000c0 f8 4b 20 3d fc 89 ab 3c d2 f8 22 3d a5 2d ba bb
       0.03913495 0.02093982 0.039788075 -0.005681711
0000d0 75 7f 32 bc bc 8d 0a 3b 6d e2 27 3b d6 2e f5 bc
       -0.010894646 0.002114161 0.0025617138 -0.02992956
0000e0 88 b5 c3 3c 08 42 fb bb 98 dc 8e bc 91 b6 27 bc
       0.023890272 -0.0076677836 -0.017439172 -0.010236398
0000f0 f9 c2 cf bc 4d 37 72 3c 3a 17 2d bc 38 35 41 bd
       -0.025361525 0.014783693 -0.01056462 -0.047169894
000100 f6 de 12 bc 08 e6 10 bd d3 b3 0b 3c 64 a4 8a 3c
       -0.008964291 -0.035375625 0.00852676 0.01692409
000110 ff eb cc bc 3c ce a9 3c 2b db 37 bd fc a9 bb bc
       -0.025014875 0.020728223 -0.04488675 -0.022908203
000120 fd 6e 44 bd 9f a0 cd 3c 91 94 8e ba 9f 09 0c bd
       -0.04795741 0.025101004 -0.0010878016 -0.034188863
000130 37 b2 df 3c 6d 40 fa bc 96 42 f9 3c 37 bb 44 bc
       0.02730666 -0.030548299 0.030427258 -0.012007526
000140 e1 97 db bc 56 9f 2d 3d 64 00 39 3d ad ba 68 3c
       -0.02680582 0.042388283 0.04516639 0.014204663
000150 1d 39 0f bd 3c 8f 03 bd 8e 11 a8 3c 2d 98 64 3c
       -0.034966577 -0.03211902 0.020516183 0.013952297
000160 04 ca 0e 3d ba c1 70 3a 61 b4 b2 bc 3f e6 a1 b8
       0.034860626 0.0009184141 -0.021814527 -7.719965e-05
000170 82 e6 30 bd 1c d8 b8 3c 42 78 0c ba 25 89 dd bc
       -0.04318858 0.022563986 -0.0005358496 -0.027042935
000180 3a 31 70 3d 95 c9 04 bd 0e b7 30 3c 44 5b dd bc
       0.058640696 -0.032418806 0.010785831 -0.027021058
000190 79 ff ce 3c 9f 7d 6b bd a4 0b 95 bc a0 a1 86 3c
       0.025268303 -0.05749285 -0.018194027 0.01643449
0001a0 60 64 c7 3c fa b2 1f bc f6 ba 83 ba ff 77 8b 3c
       0.024339855 -0.009747261 -0.0010050226 0.017024992
0001b0 47 ef 10 bb 0b 85 a9 3c d0 58 67 bc 21 21 5a bc
       -0.0022115277 0.020693323 -0.014120296 -0.013313563
0001c0 66 e5 44 bc 2c 4e 56 bb ed 1d c4 bc 1b a9 2b bb
       -0.0120175835 -0.0032700403 -0.023940051 -0.0026193324
0001d0 dd 32 f8 bc 42 a0 1e 3c a6 b5 c4 bb 09 84 7c 3c
       -0.030297691 0.009681763 -0.0060030995 0.015412339
0001e0 3e fb 47 bb 25 6e c9 3d 34 ab fe 3b 6c 42 44 bd
       -0.0030514742 0.098354615 0.007771874 -0.047914907
0001f0 20 c0 0d 3d 77 e2 b7 3c 10 e4 82 bc 67 9e 9e bc
       0.034607053 0.022446854 -0.01597789 -0.019362641
000200 b8 a7 ba ba 05 bc 28 ba f9 e4 2c bd 98 c5 2f bb
       -0.0014240658 -0.00064367085 -0.042210553 -0.0026820656
000210 91 f2 85 bb 17 b2 23 bc e8 ae c7 3b d6 06 26 3c
       -0.004087754 -0.00999119 0.0060938485 0.010133466
000220 e4 be ab 3c e8 e8 c8 bc 2c 9d bc bb 36 01 6f bc
       0.020965047 -0.02452512 -0.005756041 -0.014587691
000230 a4 30 04 3d d7 f4 66 3b ed f7 f5 bc f1 4a 84 3c
       0.03227295 0.003524115 -0.030025447 0.016149016
000240 d9 a3 89 bb 6b 5b 60 bc 4c 3c af bc 95 b6 bb bd
       -0.0042004404 -0.013693671 -0.021391056 -0.09165684
000250 0a 9d 70 bc 0a b5 04 bc 4c 52 6c 3c 51 9f 6c 3c
       -0.0146858785 -0.008099804 0.014423918 0.014442281
000260 c3 45 c6 3c 02 73 8a bc 32 53 97 bc 19 2a 8d 3c
       0.024203187 -0.016900543 -0.018472288 0.017231988
000270 65 43 36 bd 89 ca 61 3c eb bf ac bc bc f2 f0 3c
       -0.044497866 0.013781198 -0.021087607 0.02941262
000280 bc ee 0c 3d bc 4c 9f bb 26 58 1d bc 1c a9 02 bc
       0.034407362 -0.0048614424 -0.009603536 -0.007974889
000290 91 18 23 bd 9b b0 07 bd 21 1f c8 bb 0d 9c 42 3a
       -0.03981835 -0.03312741 -0.0061072265 0.0007423766
0002a0 b5 93 cb bc 21 7b 5e 3c 86 c7 ae 3c 67 94 e4 bd
       -0.024850706 0.013579161 0.021335375 -0.11161118
0002b0 31 e0 8f 3c ec 7a 18 bc c7 fc 98 bb e6 4a b4 bc
       0.017562957 -0.009306651 -0.0046688053 -0.02200837
0002c0 2d 9a 20 3d c4 59 ad 3d 62 d2 e8 3c 0f 87 83 bd
       0.039209533 0.08464387 0.02842063 -0.06422245
0002d0 06 dc 89 bc 8f ac 95 bc 07 58 58 bc 45 8c 1f 3c
       -0.016828548 -0.018270759 -0.013204581 0.009738033
0002e0 da b3 71 3c b9 33 97 3c 64 b3 bf 3c b1 f6 86 3c
       0.014752353 0.01845728 0.02340097 0.016475054
0002f0 ab 0f 46 bb b8 df 51 3d fb 9d 6f bd 21 ed 08 bd
       -0.0030221741 0.051238745 -0.05850027 -0.03342927
000300 b3 ff 96 bb 24 7d 96 bc 3f b5 0d 3d 74 dd f0 bc
       -0.0046081184 -0.018370219 0.034596678 -0.029402472
000310 fe 12 da bc d6 a3 d8 3c 97 f5 94 bc a4 dd 5c bd
       -0.026620384 0.02644531 -0.018183513 -0.05392231
000320 99 cb 46 bc 6e 9b f6 3b 21 42 c6 3c 63 6d c5 bc
       -0.012133502 0.007525853 0.024201455 -0.024100011
000330 8b 80 90 3c a4 7f d1 bb 61 c7 af bc 8f 2a 21 bc
       0.017639419 -0.00639339 -0.021457376 -0.009836807
000340 5a 83 8f bb 6e 95 ae bc 96 20 b2 bd d6 58 35 ba
       -0.004379672 -0.021311488 -0.086976215 -0.00069178396
000350 c8 1b a9 3c fd 57 bd bc aa 72 96 bc 4a fb 06 3b
       0.02064313 -0.023113245 -0.018365223 0.0020596557
000360 04 8b 2f 3d df c3 c2 3c e7 08 99 bc 49 6c bc bc
       0.042857185 0.02377504 -0.018681003 -0.023000853
000370 6f e3 1a 3c 75 b1 35 bb e2 2e 8f 3c b0 cb 1b bd
       0.009453638 -0.002772418 0.01747841 -0.03803605
000380 d9 32 f1 bc e5 98 88 3c 34 ab a9 bb 5d df ce bc
       -0.029443191 0.016674468 -0.0051778797 -0.025252992
000390 09 c8 18 3c be 1f 6c bc 21 c3 ff 3c c7 3a 73 bd
       0.009325036 -0.014411865 0.031220974 -0.059382226
0003a0 45 80 bd 3c 7f 59 76 bd 50 e2 c5 bb d6 52 c2 3b
       0.023132453 -0.060143944 -0.0060389414 0.005930285
0003b0 2d 90 a2 bc ea e5 ac bc e1 88 a1 bc 66 30 80 3c
       -0.019844139 -0.021105725 -0.01971859 0.015648078
0003c0 cd 7c e3 3c e0 49 e3 3c c1 8a 84 bc 5f 3b 0f 3a
       0.02776947 0.027745187 -0.016179444 0.0005463864
0003d0 4d 8f 8f bd 0a 5b 82 3c 8e d2 8b 3d 2c 07 d5 b8
       -0.07009754 0.015912551 0.068272695 -0.00010157967
0003e0 6e 94 55 3d fa 23 7b bd be aa a9 3c a1 69 fe 3c
       0.052143507 -0.061313607 0.020711299 0.031056227
0003f0 f4 34 15 bd 6f e6 76 bc 7f b5 b0 3b 70 68 36 3d
       -0.036427453 -0.015069588 0.00539273 0.044533193

action_model._continuous_distribution.mu.bias f4 [2]
000000 a0 05 06 3b 5f 2c 96 3c
       0.002045013 0.018331705

exp_avg f4 [128, 13]
000000 76 c3 a0 3a 13 a3 c0 38 67 2a df ba af 06 39 b8
       0.0012265283 9.1856484e-05 -0.0017026187 -4.411366e-05
000010 f1 33 a9 37 b0 8f df b6 36 47 0f 38 a7 b1 ec 3a
       2.0170557e-05 -6.6626453e-06 3.4160177e-05 0.0018058316
000020 94 6b ad 38 90 89 07 bb d9 3d 69 b9 73 b7 f5 37
       8.269321e-05 -0.002068136 -0.00022243652 2.9291701e-05
000030 a5 fb 26 38 64 eb 3c bb 08 2b 9a b8 9c d0 5c 3b
       3.9811846e-05 -0.0028826827 -7.3513074e-05 0.0033693677
000040 7e be 05 b9 03 5e 43 39 a6 cd 79 36 3f af f0 38
       -0.00012754832 0.00018631671 3.7223595e-06 0.00011476734
000050 00 68 8e bb bd f2 ab b8 94 3e 74 3b 95 3a 15 3a
       -0.004345894 -8.199129e-05 0.0037268745 0.00056926283
000060 bd b3 74 36 ee 63 d7 38 09 bb 66 38 5d e1 3e b7
       3.6463455e-06 0.00010270612 5.5010463e-05 -1.1377354e-05
000070 93 43 8f 38 80 39 03 b8 58 cd 75 b6 e7 e2 d2 36
       6.831358e-05 -3.1286385e-05 -3.662737e-06 6.2849026e-06
000080 38 48 0f b7 f9 ba 9e 38 94 44 42 b7 22 3f e4 b8
       -8.540279e-06 7.5688535e-05 -1.1579268e-05 -0.000108836466
000090 45 48 c8 38 52 c5 75 36 a7 fb ca b7 18 f7 b5 b9
       9.5502044e-05 3.66227e-06 -2.4197461e-05 -0.0003470711
0000a0 b4 9a ec 38 c9 93 1f 39 d9 2f 98 b7 06 a9 80 38
       0.000112821726 0.00015218476 -1.8142093e-05 6.134999e-05
0000b0 a2 f3 e3 38 ba 13 13 b6 07 70 ae b9 4e c8 de 38
       0.00010869584 -2.191619e-06 -0.00033271333 0.000106230946
0000c0 07 07 2d 39 13 ce 20 b9 01 4a 72 37 cc 26 08 39
       0.00016501184 -0.00015335558 1.4441554e-05 0.00012984424
0000d0 49 8e 4b ba ae d3 52 b7 ff 12 a7 3a 23 a2 62 b6
       -0.00077650376 -1.2566261e-05 0.001274675 -3.3771e-06
0000e0 87 c3 5b 38 af f9 bb 35 61 10 96 b7 c6 cf c4 ba
       5.2395768e-05 1.4005253e-06 -1.788902e-05 -0.0015015535
0000f0 0f 36 76 b7 32 d3 ca 3a bc 02 9a 39 8d b7 3b b7
       -1.4675329e-05 0.0015474318 0.00029375206 -1.1188805e-05
000100 65 c7 c8 38 11 4a d5 38 21 41 80 38 fc 4c 77 3a
       9.573883e-05 0.000101704274 6.115647e-05 0.0009433774
000110 30 a9 ef b8 1f 33 b9 38 52 be 18 38 c9 02 09 b7
       -0.00011427922 8.8310095e-05 3.6416874e-05 -8.166485e-06
000120 1b 94 29 b9 b0 41 30 38 c5 a9 6a 3a 1d d0 e1 38
       -0.0001617227 4.2022846e-05 0.0008951689 0.000107676
000130 d8 2f 24 38 3c 71 16 39 e4 37 93 bb cb 5b 95 b8
       3.9145205e-05 0.00014347298 -0.0044927467 -7.1219714e-05
000140 a5 0b d2 3b 23 78 99 b8 04 e4 5a 39 0c 6b 9b 38
       0.0064100795 -7.317986e-05 0.00020875043 7.410915e-05
000150 01 11 eb b6 aa aa ea bb 46 19 56 b8 f3 b3 fa 3b
       -7.0055253e-06 -0.007161458 -5.1045114e-05 0.007650846
000160 17 b9 84 3a 10 ae 77 37 73 2e 89 39 8c fc 6c 3a
       0.0010125962 1.4762874e-05 0.00026165284 0.0009040318
000170 4c 58 ab b7 06 8b b7 ba 52 dd 97 38 6b d9 23 b9
       -2.0425905e-05 -0.0014003224 7.241465e-05 -0.00015625886
000180 c0 7d 9f b7 e8 fc 0a b8 70 3d e3 3a fe 9c 1b b6
       -1.9012834e-05 -3.31373e-05 0.0017337035 -2.3188181e-06
000190 56 55 bf ba ff fd b3 b9 6d 21 80 37 4b 91 fc b8
       -0.0014597576 -0.00034330782 1.5274354e-05 -0.00012043359
0001a0 63 b0 f1 b8 35 22 49 b8 43 14 81 38 e8 54 bc 36
       -0.0001152463 -4.7953992e-05 6.1549734e-05 5.612721e-06
0001b0 08 2b 4d b8 c0 06 0e b8 cb 73 7b 37 28 6e ae 38
       -4.8915885e-05 -3.3861725e-05 1.4987726e-05 8.317485e-05
0001c0 5f c9 49 b8 00 e0 ab 35 13 f2 48 39 bc 43 59 36
       -4.8109676e-05 1.2805685e-06 0.00019163666 3.2374946e-06
0001d0 22 06 f2 b7 66 10 04 b8 6e 64 e6 b5 78 e5 2c 38
       -2.8851504e-05 -3.1486525e-05 -1.7165564e-06 4.1221705e-05
0001e0 66 ab c8 b5 d1 4c 49 b6 a1 b9 f5 b6 78 0c 46 35
       -1.4951045e-06 -2.9996047e-06 -7.323179e-06 7.377889e-07
0001f0 c1 26 bc b8 8d 8c e7 b5 df 3e 2b 38 c9 2c ac 36
       -8.971757e-05 -1.7251747e-06 4.082813e-05 5.131213e-06
000200 58 5b 69 b5 b2 1a 72 b8 72 e2 3e 39 1a 91 35 36
       -8.6932187e-07 -5.7722158e-05 0.0001820417 2.7055562e-06
000210 84 25 81 b9 3a f0 86 b7 e9 f7 a2 b7 ee be ae 37
       -0.0002463275 -1.6085909e-05 -1.9427347e-05 2.0831325e-05
000220 3b 0e 71 b6 02 0e 00 3a 3f 36 4e 36 2c 19 24 ba
       -3.5920082e-06 0.00048849 3.0727967e-06 -0.00062598544
000230 ad e1 b6 38 10 4c 00 37 6f 7a ac b8 c3 0c 87 bb
       8.720472e-05 7.647104e-06 -8.224404e-05 -0.0041213944
000240 16 7c d6 b8 d1 4f 9d 3b d7 80 98 b8 81 55 34 39
       -0.00010227428 0.0048007746 -7.271923e-05 0.0001719799
000250 62 bf a2 b7 2b 05 2e 39 d9 eb a7 bb 08 2a eb b8
       -1.9401024e-05 0.00016595858 -0.005124551 -0.00011213502
000260 b9 64 96 3b 65 a7 93 39 69 64 1c 38 cd 2f f0 b9
       0.004589644 0.00028162744 3.7286813e-05 -0.00045811982
000270 ac fb d4 39 89 98 63 b8 d9 79 3c ba ca 94 69 b6
       0.000406233 -5.4263077e-05 -0.00071897876 -3.4806312e-06
000280 6d a5 91 b8 9c 4e 07 b8 7f 27 80 37 0e 0f 1e 3a
       -6.944952e-05 -3.225972e-05 1.527718e-05 0.0006029465
000290 50 72 62 b8 c7 84 3d ba 63 80 6c 39 9b 4d ba b7
       -5.398906e-05 -0.0007229563 0.00022554542 -2.2209066e-05
0002a0 17 cd 9c b8 8e 04 9d 3a 63 4f da 36 a3 be 25 ba
       -7.4768606e-05 0.0011979507 6.506148e-06 -0.00063226576
0002b0 10 4d 20 b8 a4 06 13 b8 78 bf 03 b8 8f 8c 8c b7
       -3.8218743e-05 -3.5053716e-05 -3.1411153e-05 -1.6754753e-05
0002c0 3a ec b3 3a d4 d5 0f b6 93 a1 0c ba 65 8d a1 39
       0.0013727017 -2.1433125e-06 -0.00053646526 0.0003081366
0002d0 f9 43 a1 34 63 4c c3 b7 97 75 0a bb 93 82 65 b8
       3.0038044e-07 -2.3281382e-05 -0.0021127218 -5.471946e-05
0002e0 e6 c3 36 3b 5d fe c6 b6 cf 1b 12 39 5c e2 b6 38
       0.002788776 -5.9304716e-06 0.00013934005 8.720599e-05
0002f0 3a 1c 8c b7 5f d6 6c bb 4a 0b 63 b8 e3 d4 5f 3b
       -1.6702445e-05 -0.0036138517 -5.413153e-05 0.003415399
000300 d6 e9 1c 3a da 7d 87 b7 af 5f 50 39 21 2c 58 bb
       0.0005985772 -1.6151858e-05 0.0001987207 -0.0032985287
000310 22 12 f8 b8 c5 c7 a4 3b 57 53 f2 b7 53 d8 88 39
       -0.00011828939 0.005028697 -2.8887456e-05 0.00026101116
000320 f9 bc e4 38 d9 0e 4f b8 99 23 d7 bb 64 75 00 b9
       0.00010907086 -4.9366474e-05 -0.006565523 -0.00012250763
000330 ae be cf 3b fa 09 ba 3a 03 12 64 b8 30 7d db 39
       0.0063398695 0.0014193647 -5.437621e-05 0.00041864207
000340 2e dc 46 ba 39 f3 5f b8 8f 95 8a 3a 81 60 aa 37
       -0.000758591 -5.3393862e-05 0.0010573136 2.0310517e-05
000350 ae 5a 61 b8 17 ba 69 b4 39 a4 9e 36 f8 08 56 ba
       -5.3728632e-05 -2.1767515e-07 4.727885e-06 -0.00081647886
000360 86 57 3d b8 dd ab ac 3a 8a 1a 0b 36 e7 de e9 34
       -4.5142624e-05 0.0013173778 2.0728062e-06 4.3561815e-07
000370 4d 2b b2 b8 91 5f 3a 3a 8f 47 94 b6 75 6e 1b b9
       -8.495767e-05 0.00071095774 -4.4190742e-06 -0.000148231
000380 55 52 92 b7 1f 24 a7 37 b7 8a d9 b6 2c b5 54 b7
       -1.7442895e-05 1.9924772e-05 -6.4832525e-06 -1.2678367e-05
000390 d7 1a 15 3a 1d 0a 98 b6 e3 2f 61 b8 dd b2 ca b5
       0.00056878984 -4.5311303e-06 -5.368878e-05 -1.5102229e-06
0003a0 a1 e5 59 b6 2d 46 01 39 d8 36 8d b9 9c 91 62 35
       -3.2469181e-06 0.00012328541 -0.00026934478 8.440345e-07
0003b0 5f aa 15 b7 ed df 56 37 23 b0 a8 36 c0 1a 4d 35
       -8.92076e-06 1.2807531e-05 5.027295e-06 7.640738e-07
0003c0 af f8 a5 36 4d 9c 19 b9 0e 01 48 35 3d 94 55 37
       4.946334e-06 -0.00014649444 7.450734e-07 1.2730304e-05
0003d0 43 58 16 b8 05 e5 64 b6 72 dd 2c 38 31 b7 bc b9
       -3.5844987e-05 -3.4107954e-06 4.1214233e-05 -0.00035994643
0003e0 dc 4c c9 38 94 5a 29 39 e5 fc 63 b8 00 0c 25 b8
       9.598743e-05 0.00016150839 -5.4356544e-05 -3.935024e-05
0003f0 7f 55 77 37 73 ab b9 35 f8 8c 6c b9 e9 c9 c9 38
       1.4742253e-05 1.3833472e-06 -0.00022559229 9.6220356e-05

exp_avg_sq f4 [128, 13]
000000 bc 8a 1e 39 54 c0 04 33 c4 8d 15 38 7a 4a 7a 32
       0.00015119737 3.0908566e-08 3.5656398e-05 1.4568849e-08
000010 a9 bc 80 32 97 8f 78 32 c2 f6 83 32 a5 65 1e 39
       1.4986954e-08 1.44681485e-08 1.536262e-08 0.0001510592
000020 04 81 0b 33 c3 de 17 38 da 5e 5b 35 92 84 c8 31
       3.24808e-08 3.620867e-05 8.1721885e-07 5.8358376e-09
000030 e9 9e dd 34 63 55 97 39 1c 57 a6 33 de 14 82 39
       4.128008e-07 0.00028864582 7.7458225e-08 0.0002481108
000040 b4 05 5b 33 4c 26 69 33 be 99 80 33 ea 86 81 33
       5.0995098e-08 5.428437e-08 5.98843e-08 6.031571e-08
000050 2f 4e 95 39 5e 24 b2 33 54 c7 83 39 0e e1 0f 36
       0.00028477746 8.295386e-08 0.00025134778 2.143966e-06
000060 c5 27 24 33 37 a1 e6 35 85 d0 49 33 ad fd 0f 31
       3.8220396e-08 1.7183255e-06 4.6988607e-08 2.0953437e-09
000070 49 68 05 33 1a 5d e9 30 23 b8 ec 30 94 68 19 31
       3.1061322e-08 1.6979442e-09 1.7223595e-09 2.2323876e-09
000080 df 28 25 31 2a d5 96 33 18 1e 13 31 8d 6f a9 33
       2.4033893e-09 7.0236936e-08 2.1408422e-09 7.889967e-08
000090 b4 f9 34 33 27 fa c6 2f a9 15 84 33 ca b5 9c 36
       4.213662e-08 3.6193734e-10 6.150669e-08 4.6703253e-06
0000a0 37 a0 80 32 5e 8f c8 37 4c aa 52 32 1e dd 8c 32
       1.4974018e-08 2.3908618e-05 1.226233e-08 1.6398698e-08
0000b0 99 ea 88 32 a9 6a 9c 32 6d 11 d8 36 97 e2 90 32
       1.5939166e-08 1.8209294e-08 6.4393303e-06 1.6866847e-08
0000c0 a4 13 d1 37 43 b3 ab 34 4e 47 d2 31 ef 0e 1e 35
       2.4923887e-05 3.1981662e-07 6.119911e-09 5.888132e-07
0000d0 c4 93 90 38 d0 b9 81 32 58 30 55 38 2a 24 0b 32
       6.8939786e-05 1.5102074e-08 5.082818e-05 8.099088e-09
0000e0 bf 84 15 32 2a 78 21 32 f3 aa 22 32 cb 76 8d 38
       8.703124e-09 9.3987556e-09 9.46851e-09 6.745531e-05
0000f0 bf ae 8a 32 1b e9 53 38 44 ca ff 34 ef 86 ae 31
       1.614478e-08 5.0523417e-05 4.764462e-07 5.0794067e-09
000100 66 a6 82 34 20 c6 32 39 7f ef 12 33 0a 87 49 38
       2.4335458e-07 0.0001704921 3.4211094e-08 4.80479e-05
000110 e9 26 b5 32 59 71 bd 32 84 71 9c 32 d1 3a b0 32
       2.1088868e-08 2.205404e-08 1.8212411e-08 2.0515843e-08
000120 ad 6c 32 39 b7 ea 1a 33 fd eb 48 38 37 93 44 35
       0.00017015888 3.606939e-08 4.7903497e-05 7.3229916e-07
000130 03 72 4a 32 61 0a 0a 35 29 9c a7 39 a9 2c f2 33
       1.1783871e-08 5.142411e-07 0.0003196907 1.1277127e-07
000140 13 34 c1 39 9a 78 ac 33 29 42 b5 33 b0 e0 c3 33
       0.00036850627 8.0313114e-08 8.440504e-08 9.1212655e-08
000150 59 ae ca 33 ad 95 a3 39 59 ae 00 34 a9 2b c2 39
       9.438072e-08 0.000312013 1.1984356e-07 0.00037035093
000160 2c 9c 48 36 a8 55 46 33 a3 1e 41 36 91 ec 1c 39
       2.9893226e-06 4.617837e-08 2.8777074e-06 0.00014965447
000170 f0 cf 2b 33 db 89 c7 38 15 54 c8 32 2c 53 de 32
       4.0003158e-08 9.514737e-05 2.33213e-08 2.5882024e-08
000180 b7 ec d9 32 a7 6d ce 32 10 cf 19 39 39 db 37 33
       2.536977e-08 2.403142e-08 0.00014668354 4.280739e-08
000190 ee 99 cd 38 c6 f6 a1 35 76 01 27 32 0e c1 4a 35
       9.8038334e-05 1.2067255e-06 9.7210116e-09 7.5531796e-07
0001a0 cd 74 92 35 13 2f 2d 31 76 4a 36 34 a3 9d 12 31
       1.0911841e-06 2.5201572e-09 1.697716e-07 2.1335402e-09
0001b0 5d 19 15 31 53 74 27 31 bb d3 28 31 af dc 8c 35
       2.169677e-09 2.436782e-09 2.4567572e-09 1.049504e-06
0001c0 6b 0f 33 31 c2 d7 65 34 f2 93 5f 33 06 f3 3a 30
       2.6056692e-09 2.1405779e-07 5.205579e-08 6.8011763e-10
0001d0 ac 0f 9c 33 14 3e 33 35 f4 9f dd 2f 79 51 2b 33
       7.267167e-08 6.677303e-07 4.031332e-10 3.988814e-08
0001e0 c9 5b c4 2f 0e 81 e0 2f 9a 07 ed 2f 39 7a be 2f
       3.571741e-10 4.0837062e-10 4.311545e-10 3.4647643e-10
0001f0 c6 11 29 35 c4 68 e7 2f 36 08 17 33 03 f0 0b 32
       6.298327e-07 4.2093096e-10 3.5164895e-08 8.145437e-09
000200 9d 51 0e 2f 61 54 22 32 98 d3 08 35 8b 94 ee 31
       1.294382e-10 9.448827e-09 5.097186e-07 6.943599e-09
000210 91 c1 a5 35 77 ab ba 31 80 c3 b5 31 7a 03 d0 31
       1.2349793e-06 5.4328058e-09 5.290019e-09 6.053992e-09
000220 01 a7 07 32 8d ec 1e 35 e7 a4 f4 31 37 b0 a9 35
       7.8960065e-09 5.9203813e-07 7.120082e-09 1.2642766e-06
000230 92 db 32 34 02 26 83 30 e9 2a 91 34 58 ec 21 38
       1.6657421e-07 9.542307e-10 2.7039576e-07 3.8605504e-05
000240 6f 43 12 33 96 69 dd 38 14 66 e9 32 62 e3 06 33
       3.4054604e-08 0.00010557768 2.717119e-08 3.140611e-08
000250 fe 61 0c 33 1d cb 13 33 25 ba 26 38 71 02 1f 33
       3.2685413e-08 3.4410835e-08 3.9750845e-05 3.7022293e-08
000260 6a ff db 38 63 18 75 35 c8 5f bf 32 e0 cc 88 35
       0.00010490308 9.13051e-07 2.2278883e-08 1.0192416e-06
000270 35 ea 38 36 80 af 99 31 a5 a7 2f 37 1e 98 7f 31
       2.7554463e-06 4.472838e-09 1.0469846e-05 3.7193852e-09
000280 09 a8 96 31 36 5d 8f 31 39 57 90 31 15 b8 31 36
       4.384678e-09 4.1724446e-09 4.2008677e-09 2.6482205e-06
000290 ba 17 a4 31 d6 e2 38 37 8f f5 1a 34 f0 33 32 30
       4.7757256e-09 1.1020069e-05 1.4431701e-07 6.482983e-10
0002a0 18 c7 d4 33 de 1c 14 38 48 65 17 32 c2 3f 8d 37
       9.908234e-08 3.5312834e-05 8.8123855e-09 1.68382e-05
0002b0 1c a0 bb 31 05 d5 c3 31 44 90 d6 31 01 11 bf 31
       5.4606186e-09 5.6994645e-09 6.244621e-09 5.5607647e-09
0002c0 e0 11 10 38 9f 92 1f 32 ca 5c 93 37 02 c9 7f 34
       3.4348923e-05 9.288356e-09 1.7566974e-05 2.3821852e-07
0002d0 32 4a 10 31 d7 51 4c 34 00 1b 41 39 a7 4c 38 33
       2.0996933e-09 1.9028754e-07 0.00018415973 4.2910553e-08
0002e0 99 96 a6 38 ad 74 d3 32 6b c7 db 32 a8 97 e0 32
       7.943548e-05 2.4616691e-08 2.558564e-08 2.6145997e-08
0002f0 0c b5 df 32 a2 3a 40 39 aa eb 44 33 2b 42 a9 38
       2.6042947e-08 0.0001833239 4.584914e-08 8.070873e-05
000300 22 39 83 35 9f ae 65 32 16 57 5a 35 a3 b3 23 3a
       9.776888e-07 1.3369259e-08 8.1338055e-07 0.00062447245
000310 ff 30 1c 34 78 4a 9e 39 17 4c c1 33 5e 41 d5 33
       1.4546457e-07 0.00030191592 9.0011035e-08 9.9304756e-08
000320 ec f5 d2 33 0a 35 d2 33 1d 45 22 3a 0f ac 27 34
       9.82362e-08 9.788535e-08 0.0006190108 1.5615682e-07
000330 49 1a a0 39 a7 40 68 36 01 ca 7a 33 9c 69 4a 36
       0.00030537162 3.4608327e-06 5.8391382e-08 3.0161818e-06
000340 77 fa 2c 39 e7 41 21 33 80 17 8e 38 57 47 65 32
       0.00016496504 3.754567e-08 6.775465e-05 1.3345775e-08
000350 39 28 63 32 cf c8 6b 32 a8 4e 6c 32 8b f0 27 39
       1.3222285e-08 1.3724459e-08 1.3754892e-08 0.0001601597
000360 9d 9d 28 33 3e 03 91 38 9d 04 30 35 b4 33 97 31
       3.9258897e-08 6.914743e-05 6.557182e-07 4.4005564e-09
000370 8f 73 f1 34 14 b6 a4 37 b8 f1 c1 31 bc 31 14 34
       4.4973828e-07 1.963511e-05 5.6445195e-09 1.3801667e-07
000380 8d 13 9f 31 8a 9e a3 31 0a c3 98 31 db b5 96 31
       4.6297317e-09 4.761948e-09 4.4459556e-09 4.386249e-09
000390 6c 67 98 37 00 75 c8 31 d4 4f 48 34 ab 14 00 34
       1.8167972e-05 5.8340675e-09 1.8655493e-07 1.1928448e-07
0003a0 40 52 8f 30 31 4d ef 33 55 bf 90 34 04 a4 1d 30
       1.0427996e-09 1.1143346e-07 2.6961303e-07 5.734935e-10
0003b0 2f 2e 44 32 6e fc 24 30 6c 9b 2b 30 57 ff 22 30
       1.14192025e-08 6.0021577e-10 6.2430305e-10 5.9298116e-10
0003c0 ed 90 04 30 e2 76 8a 34 74 33 22 30 0b a3 77 32
       4.822727e-10 2.5791002e-07 5.9008376e-10 1.4414364e-08
0003d0 a7 4f 48 32 3c 84 74 2f 2f a4 5a 32 3b 43 13 39
       1.1659643e-08 2.223865e-10 1.2726601e-08 0.00014044058
0003e0 86 f5 11 33 c2 80 04 35 95 16 ae 32 38 b3 d3 32
       3.3983746e-08 4.93612e-07 2.0266535e-08 2.4645132e-08
0003f0 e4 f6 bf 32 7d 58 b0 32 46 8b 0f 39 b0 9e 16 33
       2.23476e-08 2.0529336e-08 0.00013689426 3.5068922e-08

exp_avg f4 [128]
000000 94 6b 2d 39 bf f2 2b b9 92 44 c2 b7 4f c8 5e 39
       0.00016538642 -0.00016398261 -2.3158533e-05 0.0002124619
000010 10 36 f6 b7 b2 41 b0 38 4b 19 d6 b8 ea 9c 9b b6
       -2.935066e-05 8.404571e-05 -0.000102090264 -4.637627e-06
000020 62 c9 c9 b8 95 8c 67 b6 42 36 ce 36 08 2a 6b b9
       -9.621937e-05 -3.4503512e-06 6.145595e-06 -0.00022427004
000030 4c 72 e2 b8 e4 d5 8f b6 47 0b e3 b8 62 75 80 b9
       -0.00010797809 -4.2866322e-06 -0.00010826304 -0.0002450152
000040 89 57 bd b8 19 0a 18 b7 f9 00 c8 35 eb c9 49 39
       -9.028527e-05 -9.062257e-06 1.4901444e-06 0.00019244074
000050 82 f4 9f 38 64 03 c6 b7 d4 1a 00 b8 ac 9f 80 37
       7.627254e-05 -2.3605018e-05 -3.0542564e-05 1.5333142e-05
000060 9a 3f 74 b8 77 d4 da 38 e8 1d 48 39 86 62 f8 b8
       -5.8233367e-05 0.00010434625 0.00019084627 -0.00011843913
000070 82 9f 7b b9 fd b2 eb 37 55 9d 03 39 61 a4 0e ba
       -0.00023996647 2.8097531e-05 0.00012551744 -0.00054413645
000080 81 10 6a b8 3e 81 b0 b7 74 68 d7 b8 31 65 c0 b9
       -5.5805318e-05 -2.1041018e-05 -0.00010271455 -0.00036696487
000090 c4 c8 a9 b9 f4 44 44 b8 52 5e 04 b9 65 b2 18 b8
       -0.00032383774 -4.679426e-05 -0.00012623638 -3.6405767e-05
0000a0 72 33 e1 b8 ef 5e 4e 37 65 67 9c b9 0d ef 82 38
       -0.000107384185 1.230066e-05 -0.00029831674 6.24341e-05
0000b0 66 13 ce b9 af 88 2a 39 6a ec 25 b9 bf e2 22 37
       -0.00039305835 0.00016263382 -0.00015823697 9.708746e-06
0000c0 ca e4 e4 38 ca e1 6d b7 c0 1b d3 39 a7 2a d0 b8
       0.000109145025 -1.4178871e-05 0.00040265732 -9.9261575e-05
0000d0 a4 87 9d b7 73 5b 24 38 8c dd bb 36 74 89 d4 38
       -1.8779021e-05 3.9185816e-05 5.5988257e-06 0.000101345504
0000e0 5d f5 4b 39 ce b4 e0 b8 49 34 34 b9 14 e7 0e 38
       0.00019450994 -0.0001071483 -0.00017185615 3.4070647e-05
0000f0 e0 0c 10 b9 5e cf 17 b9 d1 ab 45 37 f6 ee a2 b9
       -0.00013737706 -0.00014477732 1.1782119e-05 -0.00031077088
000100 07 0a 6d b8 3b 01 9d b8 d9 40 00 39 0a f1 a5 39
       -5.6514542e-05 -7.4865726e-05 0.00012231189 0.0003165084
000110 a1 73 12 b8 15 cc ab b8 20 83 71 b8 d3 22 d3 b7
       -3.49168e-05 -8.191929e-05 -5.7580997e-05 -2.5169376e-05
000120 6a 80 90 38 40 ad 6d 38 8c a0 0a 39 c6 d6 2a b5
       6.890374e-05 5.6666555e-05 0.00013220514 -6.364247e-07
000130 5d 7b 97 38 99 7f 00 3a 7d 28 a4 b7 6d a7 8f b8
       7.223219e-05 0.0004901826 -1.9569177e-05 -6.849957e-05
000140 01 1a 0f 38 9f f8 63 b7 ea cb d6 b8 f1 eb 1f 38
       3.4118075e-05 -1.3588141e-05 -0.00010242297 3.812829e-05
000150 14 74 de b8 99 37 3d 39 bd b3 3c b8 ba ee 43 b9
       -0.00010607406 0.00018045156 -4.4990087e-05 -0.00018685582
000160 4e 9c e4 b8 d7 71 4e 36 3d e5 e2 38 72 c7 9f 39
       -0.00010901001 3.0762656e-06 0.00010819219 0.00030475442
000170 cb 4b 17 b7 60 36 75 34 00 fd 56 38 e7 20 9e b9
       -9.017948e-06 2.2837185e-07 5.12572e-05 -0.00030160623
000180 88 7f 3f b5 09 0a b6 39 87 a9 27 b8 31 c8 5d 39
       -7.1338627e-07 0.00034721222 -3.9973787e-05 0.0002115078
000190 0c dd cc 38 92 57 b2 b8 0c e8 f3 b7 c7 0d 09 b9
       9.768651e-05 -8.504013e-05 -2.9075913e-05 -0.0001307047
0001a0 cb ff da 37 2e d9 92 38 d4 a5 e6 b8 33 8b 5c b9
       2.6106738e-05 7.0022754e-05 -0.000109981425 -0.0002103269
0001b0 a8 b8 29 36 94 ba 00 b9 83 c2 50 b8 54 7c 35 38
       2.5290447e-06 -0.00012276537 -4.9772218e-05 4.3269552e-05
0001c0 6e cd c9 38 08 a6 f6 38 d8 1f 86 b9 9b 19 d7 34
       9.622691e-05 0.0001176112 -0.00025582197 4.00655e-07
0001d0 2c 57 41 b7 6d 1b 8d 38 60 7b 62 b8 85 f9 8c 37
       -1.1523993e-05 6.7285124e-05 -5.39975e-05 1.6805492e-05
0001e0 8e c5 ea b8 73 99 50 37 cf a2 ac 39 6b ad 7e 38
       -0.00011194787 1.2433494e-05 0.00032927698 6.0719827e-05
0001f0 01 90 09 b9 24 06 92 37 59 68 e7 36 6e 1f cb 38
       -0.00013118984 1.7407416e-05 6.896484e-06 9.6856485e-05
